models/policy_ppo_m50_normal1.pt (torch, 912104 bytes, 76 tensors)

sigma f4 [5]
0.0 0.0 0.0 0.0 0.0
00000000: 0000 0000 0000 0000 0000 0000 0000 0000
00000010: 0000 0000

conv1.weight f4 [16, 3, 5, 5]
-0.032089233 0.025868144 -0.117585674 -0.08366033 -0.028896885 0.010452374 -0.021363292 0.09178257
0.002955092 0.030003453 -0.05401848 -0.038644094 -0.1195534 -0.088033944 -0.058188397 -0.0046794424
0.029936334 0.044469897 -0.109473564 -0.07009365 0.024016881 0.07346806 -0.047347147 0.060009163
-0.034528203 -0.03270784 0.067601256 -0.14053614 -0.09727021 -0.03312962 -0.057380587 0.10548824
-0.0936338 -0.047984928 -0.060166366 -0.10337349 -0.047453314 0.09711212 0.05651595 0.078323975
0.016073998 -0.040330756 0.023931975 -0.100089796 -0.07790516 -0.05849851 0.09392999 0.08999075
-0.036678724 0.01733477 0.045768607 0.09333079 0.025841977 0.011200656 0.07162553 -0.07113674
0.00980628 -0.10781471 -0.07932407 -0.08753388 0.04933298 0.043417417 -0.07411626 0.03233744
0.049108576 -0.014679603 0.0098955715 0.02319 0.07552111 0.09153281 -0.08934482 -0.023011377
0.070939295 0.10945894 0.10650746 0.10461466 0.040551994 -0.08313408 0.013882682 -0.057295833
-0.09397026 0.11918087 0.108974755 -0.10228292 0.03459635 -0.014696674 -0.019538675 -0.04357414
0.048205096 -0.06912279 0.03643484 0.053502496 0.10839281 0.06339478 -0.11899635 -0.0698295
0.07172646 0.054284256 -0.074292816 -0.060836118 0.10870385 0.09876907 -0.0255456 -0.006961752
-0.08040974 0.012223099 -0.06927187 -0.052298293 0.035871867 0.048642367 -0.05294658 0.068948954
-0.03946984 0.13677171 0.107616864 -0.10735804 -0.050587263 0.0074012284 0.032687787 0.052672327
0.051546544 -0.0027727822 -0.066010684 0.057131737 -0.11139237 -0.07408659 -0.020378495 -0.04391695
-0.021083923 -0.07769168 -0.02281076 0.017752692 -0.07105114 0.009991586 0.08344516 -0.011706357
0.008449949 0.00716215 0.021271791 0.060061183 0.119592756 0.07584617 0.112164035 -0.0056926585
-0.10651674 -0.026876964 0.08994194 0.0037304275 -0.054832514 -0.09202553 -0.102130786 -0.090585716
-0.019694906 0.07005193 0.08152974 -0.10178052 0.076753475 -0.090261005 -0.032739226 -0.020599695
-0.0039090617 -0.012287958 -0.09526676 -0.08155403 0.005457799 0.032271497 -0.017575288 0.06627788
-0.09906982 0.003307362 0.1280381 -0.01567612 0.13858165 0.04947106 -0.11039517 0.09862905
0.0046187206 -0.026607523 0.12181565 -0.075418785 0.026037166 -0.01708775 0.099994 0.042475212
0.0698772 0.035960115 -0.03153417 -0.016464313 -0.08342542 0.07499177 0.09664825 0.09457557
-0.05230439 0.016450282 -0.06925537 -0.04501613 -0.040811412 0.07448119 -0.05554228 0.013277506
0.019598298 0.08696351 -0.08661651 -0.078599274 -0.055731084 0.09234883 -0.030047292 0.08628476
0.038867258 0.027190717 0.00016065408 -0.026442636 -0.00280815 -0.008429657 0.0048869816 0.02430802
-0.084480286 -0.06487779 0.08193096 -0.08723557 0.00203703 0.13076939 0.04268914 -0.004673591
-0.087129034 0.06959523 -0.07857711 -0.038378056 -0.04154701 -0.028573258 0.013152675 0.092868485
0.007161994 0.09575988 0.06475828 -0.06771316 0.051953807 -0.08762148 -0.049073678 0.03671148
0.052452832 0.09215139 -0.03656374 -0.0050546452 0.056116246 -0.095064215 0.10222103 -0.09944985
-0.012522573 -0.02409221 -0.041956358 0.033834755 0.08757139 -0.051629405 -0.0895456 -0.044682194
00000000: 0070 03bd 6ee9 d33c c2d0 f0bd 1b56 abbd
00000010: 29b9 ecbc 6f40 2b3c 1202 afbc 80f8 bb3d
00000020: 37aa 413b cdc9 f53c 7b42 5dbd 4549 1ebd
00000030: 6ad8 f4bd 244b b4bd f556 6ebd 0256 99bb
00000040: 0b3d f53c 1126 363d ad33 e0bd 428d 8fbd
00000050: 0dbf c43c 6c76 963d 15ef 41bd 2bcc 753d
00000060: 726d 0dbd a8f8 05bd 8772 8a3d b5e8 0fbe
00000070: 9b35 c7bd edb2 07bd e807 6bbd 380a d83d
00000080: 14c3 bfbd d88b 44bd 0271 76bd 7bb5 d3bd
00000090: 685e 42bd b8e2 c63d 457d 673d 5268 a03d
000000a0: 9ead 833c dd31 25bd fd0c c43c e1fb ccbd
000000b0: be8c 9fbd 229c 6fbd 5e5e c03d 124d b83d
000000c0: 6e3c 16bd a601 8e3c dd77 3b3d 3724 bf3d
000000d0: 8eb2 d33c f582 373c 68b0 923d 24b0 91bd
000000e0: 85aa 203c f5cd dcbd a874 a2bd f644 b3bd
000000f0: 6111 4a3d 76d6 313d 44ca 97bd 4374 043d
00000100: 1326 493d b882 70bc 0921 223c f4f8 bd3c
00000110: d0aa 9a3d 8e75 bb3d 6bfa b6bd 5b82 bcbc
00000120: 9f48 913d 022c e03d 9520 da3d 3640 d63d
00000130: d919 263d 3342 aabd 3074 633c 09af 6abd
00000140: 7b73 c0bd 1a15 f43d 282e df3d b579 d1bd
00000150: e7b4 0d3d 52ca 70bc 920f a0bc cc7a 32bd
00000160: b572 453d 4090 8dbd b33c 153d 6f25 5b3d
00000170: 0dfd dd3d 1fd5 813d 5cb4 f3bd c502 8fbd
00000180: 52e5 923d 2b59 5e3d d526 98bd 4b2f 79bd
00000190: 20a0 de3d 7047 ca3d 0245 d1bc 691f e4bb
000001a0: ddad a4bd 6543 483c 69de 8dbd bc36 56bd
000001b0: 61ee 123d 383d 473d 83de 58bd 1c35 8d3d
000001c0: 20ab 21bd e20d 0c3e 3b66 dc3d 88de dbbd
000001d0: 9734 4fbd 0186 f23b a1e3 053d f0be 573d
000001e0: 7822 533d 91b7 35bb 9c30 87bd f802 6a3d
000001f0: af21 e4bd b6ba 97bd cdf0 a6bc 42e2 33bd
00000200: 31b8 acbc d11c 9fbd a2dd babc 186e 913c
00000210: 4383 91bd c0b3 233c 4ce5 aa3d 05cc 3fbc
00000220: a871 0a3c 78b0 ea3b 2e42 ae3c b702 763d
00000230: 0ced f43d 3d55 9b3d 42b6 e53d 7b89 babb
00000240: 7325 dabd 142d dcbc 7b33 b83d 307a 743b
00000250: 0f98 60bd e277 bcbd f229 d1bd 0185 b9bd
00000260: 3657 a1bc 6377 8f3d 10f9 a63d 4e72 d0bd
00000270: ed30 9d3d c3da b8bd 9119 06bd b1c0 a8bc
00000280: 9617 80bb 6e53 49bc 381b c3bd cd05 a7bd
00000290: 56d7 b23b 1e2f 043d 0dfa 8fbc b2bc 873d
000002a0: 1ee5 cabd 54c0 583b 6b1c 033e 356b 80bc
000002b0: 59e8 0d3e 2ba2 4a3d dd16 e2bd 07fe c93d
000002c0: a358 973b 05f8 d9bc 7c7a f93d 2a75 9abd
000002d0: e54b d53c 9cfb 8bbc a7c9 cc3d 7dfa 2d3d
000002e0: c71b 8f3d ea4a 133d f929 01bd 2be0 86bc
000002f0: f2da aabd 4995 993d 85ef c53d d6b0 c13d
00000300: 213d 56bd bec2 863c c2d5 8dbd d562 38bd
00000310: de29 27bd 9889 983d 4d80 63bd e689 593c
00000320: 9c8c a03c ed19 b23d ff63 b1bd a8f8 a0bd
00000330: 4746 64bd 6221 bd3d bd25 f6bc 10b6 b03d
00000340: 4633 1f3d 11bf de3c 4075 2839 3a9e d8bc
00000350: f008 38bb 8b1c 0abc f922 a03b 9d21 c73c
00000360: 0004 adbd a6de 84bd 6bcb a73d 90a8 b2bd
00000370: b17f 053b 69e8 053e cfda 2e3d ec24 99bb
00000380: b570 b2bd f287 8e3d 09ed a0bd 4f32 1dbd
00000390: 332d 2abd 7712 eabc 517e 573c d531 be3d
000003a0: 29af ea3b c21d c43d fd9f 843d 32ad 8abd
000003b0: 84cd 543d e472 b3bd 7b01 49bd c75e 163d
000003c0: c8d8 563d deb9 bc3d dcc3 15bd 70a1 a5bb
000003d0: 26da 653d 07b1 c2bd 4259 d13d 5dac cbbd
000003e0: 7a2b 4dbc 075d c5bc 6eda 2bbd 5096 0a3d
000003f0: a158 b33d 5b79 53bd af63 b7bd ad04 37bd

conv1.bias f4 [16]
0.051427506 0.106173135 0.09998261 -0.10123994 -0.08833492 -0.04536402 -0.062280346 0.10930116
0.0063205543 -0.074825674 -0.045441795 -0.05564664 0.042648036 -0.10883701 -0.1016169 -0.113237366
00000000: a6a5 523d 4d71 d93d afc3 cc3d e356 cfbd
00000010: f0e8 b4bd 9fcf 39bd ad19 7fbd 49d9 df3d
00000020: a71c cf3b 343e 99bd 2d21 3abd bbed 63bd
00000030: b5af 2e3d f0e5 debd 851c d0bd fee8 e7bd

bn1.weight f4 [16]
1.0025856 1.018542 0.99028546 0.997107 1.0039139 0.9939839 1.0250864 0.9930357
0.9829869 0.9995074 0.99290437 1.0283175 0.9709323 1.0181744 0.9585717 1.0202177
00000000: ba54 803f 965f 823f 5983 7d3f 6842 7f3f
00000010: 4080 803f bb75 7e3f 0836 833f 9637 7e3f
00000020: 08a5 7b3f b8df 7f3f fb2e 7e3f e89f 833f
00000030: 058f 783f 8a53 823f f464 753f 7e96 823f

bn1.bias f4 [16]
-0.01133687 -0.006165808 -0.024052678 -0.025634062 0.0065022497 -0.004816439 -0.0052994387 0.018148603
-0.025928373 -0.018036611 -0.025102982 -0.016479244 -0.011778122 0.018371284 -0.01972377 0.01595144
00000000: 47be 39bc 8c0a cabb 1f0a c5bc 86fe d1bc
00000010: d310 d53b 38d3 9dbb eaa6 adbb 61ac 943c
00000020: bd67 d4bc 84c1 93bc c5a4 cdbc 7bff 86bc
00000030: 06f9 40bc 607f 963c be93 a1bc 98ac 823c

bn1.running_mean f4 [16]
-0.18669738 0.16888249 0.12879008 -0.2823702 0.1746331 0.39658597 0.0939839 0.040586054
0.03621152 -0.057826046 0.19274266 -0.0022888398 0.2701153 -0.13684613 -0.43583146 -0.36378184
00000000: 992d 3fbe 88ef 2c3e 8ce1 033e d492 90be
00000010: 05d3 323e 510d cb3e a27a c03d 903d 263d
00000020: 8852 143d 01db 6cbd 555e 453e 5c00 16bb
00000030: 8d4c 8a3e 6421 0cbe 4d25 dfbe 9d41 babe

bn1.running_var f4 [16]
0.027248526 0.00819911 0.0058906274 0.006452975 0.01541471 0.051165514 0.0065099965 0.013999536
0.004110584 0.0068308488 0.010827859 0.002486472 0.013364695 0.005381901 0.036621675 0.0114992
00000000: 4d38 df3c 8f55 063c 2a06 c13b 7a73 d33b
00000010: fb8d 7c3c ee92 513d cf51 d53b 4f5e 653c
00000020: 14b2 863b 50d5 df3b 5567 313c 14f4 223b
00000030: 98f7 5a3c a85a b03b 9c00 163d 2467 3c3c

conv2.weight f4 [32, 16, 5, 5]
0.004134517 0.019184204 -0.040658757 0.026430354 0.027486335 0.057050124 0.006151354 -0.012768355
-0.0003028481 0.021695726 -0.023107376 0.022991087 0.019582756 -0.031700056 0.0408382 0.055107843
-0.0066919127 -0.008265666 0.006257726 -0.049746707 0.0046962467 0.0066547617 0.035456765 -0.05436174
-0.037740372 0.0009035556 0.0072235484 -0.030524591 -0.02102065 -0.058864113 -0.0416613 -0.032709785
0.019943664 -0.005450587 0.031926464 0.04687186 0.0388826 -0.042236082 0.026294 0.011757393
0.026961409 -0.06726762 0.030796254 0.03936827 -0.06885666 -0.006439432 0.052094016 -0.034449793
0.045466058 0.015016934 0.043729786 0.036305577 0.042914502 0.024899304 -0.017944176 0.040690046
-0.03277188 -0.013576487 0.007257795 -0.01010206 0.031280864 0.042502463 0.047192182 0.04966029
-0.022496589 -0.025371982 -0.0051192497 0.058094636 0.029365083 -0.008186153 0.006811508 0.03489416
0.0008517233 0.0018596064 0.06300863 0.0066130366 -0.023660092 0.0055297003 -0.037966575 -0.044640925
0.04988769 -0.0008843751 0.015299833 -0.060653497 -0.008711354 0.013755368 0.033308573 0.030059233
0.013017229 0.017584618 -0.0150375925 -0.03314988 -0.043535884 -0.032174617 0.05149937 0.004158163
0.009824511 -0.035744917 0.025028583 0.017968891 -0.022104392 -0.031009149 0.04521858 0.037674908
-0.0058270204 0.026488993 0.0041341865 -0.01206497 -0.040848117 0.025615081 0.0066296947 -0.0063235387
0.0012870603 -0.0001784641 -0.0013093743 -0.04351133 0.027661886 0.024874188 -0.013481444 -0.003407777
0.014071463 -0.012183931 -0.0004708239 0.035590008 -0.011769186 0.002380113 -0.0040892 0.03525984
-0.011849283 -0.0030040366 0.03653718 -0.03729706 0.015053972 0.048783943 -0.0061806394 0.028394459
0.044328697 0.050955985 -0.002451526 0.050031263 -0.016595053 -0.003648835 0.024097491 0.010409128
0.022160383 0.057406336 -0.024636803 0.04101999 0.038860507 0.0119091775 -0.0035053564 -0.039433934
-0.06546567 0.0015320947 -0.0511447 0.017732156 -0.04280164 -0.004582997 -0.026995828 -0.00041616903
-0.013378939 0.020842688 -0.009417758 0.0017680525 0.044356097 -0.031549677 -0.017469212 -0.023108412
0.05478169 0.033095893 0.0063693 -0.014036033 -0.029660173 0.03949343 -0.009009915 0.025674846
0.03102234 0.06310432 0.034447204 -0.04107367 0.016058704 0.010427673 0.03273683 0.01806866
-0.0020951391 -0.016820395 -0.048869405 0.032466028 -0.012941472 0.021106215 0.06351721 -0.0100741545
0.012450978 -0.0597322 0.012040993 0.0051582777 0.044855814 0.028844658 0.015374163 0.03393751
0.01661361 -0.03865718 -0.019555481 0.023662157 -0.0025187598 -0.05059457 -0.008593615 -0.019223036
-0.07393587 -0.01659612 0.04046312 0.03676229 -0.015286445 -0.07155111 -0.017662354 0.0070063807
0.05859626 -0.02203741 -0.025122207 -0.01450826 -0.04669503 -0.037615433 -0.03174268 0.088367164
-0.026987394 0.005421224 -0.0075453385 -0.044441164 -0.01221787 0.021938387 -0.023644036 -0.0020331114
-0.014470876 -0.05342501 0.03150021 0.037995026 0.018925546 -0.05324032 0.024048015 -0.06433956
-0.006404713 -0.014194437 -0.0110399155 0.016486552 -0.018685002 0.011160395 -0.008310545 -0.038240783
0.002270468 -0.028607268 0.012857224 0.013246783 0.024914566 -0.03450447 -0.02279871 -0.015948357
00000000: d87a 873b 3128 9d3c cc89 26bd 7884 d83c
00000010: 062b e13c 64ad 693d 4c91 c93b 5d32 51bc
00000020: 95c7 9eb9 3cbb b13c ae4b bdbc ce57 bc3c
00000030: 046c a03c ebd7 01bd f545 273d c3b8 613d
00000040: d547 dbbb b76c 07bc 9c0d cd3b 34c3 4bbd
00000050: f9e2 993b 3010 da3b 1d3b 113d 6aaa 5ebd
00000060: a695 1abd 97dc 6c3a 84b3 ec3b b50e fabc
00000070: 8033 acbc 7f1b 71bd 0aa5 2abd b2fa 05bd
00000080: e560 a33c d69a b2bb 53c5 023d b5fc 3f3d
00000090: 5c43 1f3d beff 2cbd 8466 d73c 15a2 403c
000000a0: 2cde dc3c 9bc3 89bd 6d48 fc3c a040 213d
000000b0: b804 8dbd df01 d3bb 8960 553d 3a1b 0dbd
000000c0: 9e3a 3a3d 9609 763c 011e 333d 28b5 143d
000000d0: 1ec7 2f3d a0f9 cb3c aaff 92bc 9baa 263d
000000e0: cf3b 06bd ea6f 5ebc ccd2 ed3b 1c83 25bc
000000f0: 5d20 003d 1017 2e3d 974c 413d 9768 4b3d
00000100: c44a b8bc e7d8 cfbc 61bf a7bb a4f4 6d3d
00000110: 0b8f f03c 371f 06bc 1233 df3b 2eed 0e3d
00000120: 2f46 5f3a 09be f33a ab0a 813d 2cb2 d83b
00000130: cfd2 c1bc 7d32 b53b d782 1bbd 67d9 36bd
00000140: 0957 4c3d 69d5 67ba 27ac 7a3c cd6f 78bd
00000150: 11ba 0ebc 325e 613c 926e 083d c83e f63c
00000160: 3746 553c 9e0d 903c 3c60 76bc 2bc8 07bd
00000170: af52 32bd 88c9 03bd 01f1 523d 3341 883b
00000180: fcf6 203c 4369 12bd be08 cd3c 7f33 933c
00000190: 4514 b5bc e606 febc 1e37 393d 0151 1a3d
000001a0: 97f0 bebb 72ff d83c 1278 873b 27ac 45bc
000001b0: 5b50 27bd b8d6 d13c e93d d93b b035 cfbb
000001c0: 94b2 a83a 1822 3bb9 509f abba f038 32bd
000001d0: 2e9b e23c f4c4 cb3c 46e1 5cbc 0355 5fbb
000001e0: fe8b 663c 1c9f 47bc ead8 f6b9 d4c6 113d
000001f0: 8bd3 40bc abfb 1b3b b2fe 85bb 9f6c 103d
00000200: 7f23 42bc 5fdf 44bb 03a8 153d cdc4 18bd
00000210: efa4 763c acd1 473d f686 cabb 7f9b e83c
00000220: 0292 353d 39b7 503d c8a9 20bb 95ed 4c3d
00000230: 59f2 87bc 4b21 6fbb 1a68 c53c 0c8b 2a3c
00000240: b189 b53c e822 6b3d 1fd3 c9bc 9404 283d
00000250: 322c 1f3d b61e 433c 1fba 65bb 7a85 21bd
00000260: dd12 86bd 91d0 c83a 1b7d 51bd 0743 913c
00000270: c650 2fbd f72c 96bb 5b26 ddbc 4331 dab9
00000280: 5633 5bbc 49be aa3c f14c 1abc ffbd e73a
00000290: bdae 353d 3c3a 01bd 981b 8fbc da4d bdbc
000002a0: c462 603d 8f8f 073d 90b5 d03b 64f7 65bc
000002b0: e4f9 f2bc ddc3 213d 539e 13bc 0e54 d23c
000002c0: 9022 fe3c d63c 813d 8318 0d3d dd3c 28bd
000002d0: 8b8d 833c d5d8 2a3c 0e17 063d ba04 943c
000002e0: 9a4e 09bb edca 89bc 492b 48bd 19fb 043d
000002f0: 7808 54bc f1e6 ac3c 5015 823d 110e 25bc
00000300: 30ff 4b3c c0a9 74bd 9647 453c c506 a93b
00000310: bbba 373d a24b ec3c eae3 7b3c 0f02 0b3d
00000320: 4419 883c fe56 1ebd d132 a0bc 24d7 c13c
00000330: c711 25bb 403c 4fbd 3ccc 0cbc a179 9dbc
00000340: b06b 97bd 96f4 87bc a8bc 253d 0e94 163d
00000350: ff73 7abc 6389 92bd a4b0 90bc c895 e53b
00000360: a202 703d cc87 b4bc 16cd cdbc 0eb4 6dbc
00000370: 4a43 3fbd a412 1abd 9d04 02bd d8f9 b43d
00000380: ab14 ddbc 86a4 b13b e33e f7bb f007 36bd
00000390: 762d 48bc 22b8 b33c 23b1 c1bc f33d 05bb
000003a0: 4117 6dbc 2fd4 5abd 5d06 013d aca0 1b3d
000003b0: bf09 9b3c 8612 5abd 5800 c53c 76c4 83bd
000003c0: a0de d1bb c98f 68bc c3e0 34bc ce0e 873c
000003d0: 4a11 99bc 17da 363c f428 08bc 5ea2 1cbd
000003e0: 22cc 143b ca59 eabc 1ba7 523c 0909 593c
000003f0: a219 cc3c 8f54 0dbd 5cc4 babc 21a6 82bc

conv2.bias f4 [32]
-0.04305715 0.003099338 -0.02506522 0.0100369165 0.011437769 -0.003143312 0.021991123 0.023813047
-0.011500248 -0.0010754936 0.0077205496 -0.04578023 0.011726977 0.009517545 0.002692422 -0.016378818
-0.025502354 0.017245537 -0.042677507 0.022035312 -0.042701807 0.015199358 0.002244621 -0.015239119
-0.017005177 -0.006823904 -0.025613572 -0.017756697 -0.009843139 0.034358084 0.006110196 0.047591317
00000000: b25c 30bd 431e 4b3b 9455 cdbc e171 243c
00000010: 7b65 3b3c 0600 4ebb ba26 b43c 9413 c33c
00000020: 896b 3cbc 94f7 8cba aafc fc3b 0d84 3bbd
00000030: 8222 403c 7aef 1b3c 5873 303b df2c 86bc
00000040: 50ea d0bc 8346 8d3c 9cce 2ebd 6683 b43c
00000050: 17e8 2ebd ba06 793c 7e1a 133b 7fad 79bc
00000060: 714e 8bbc 0e9b dfbb 8ed3 d1bc 7e76 91bc
00000070: 1e45 21bc 10bb 0c3d 0a38 c83b 1def 423d

bn2.weight f4 [32]
0.98033005 0.9981621 0.9896369 0.99780774 1.0122615 1.009543 0.9990748 1.0321784
0.99140775 0.982953 0.9819144 0.9750446 1.0054005 0.9996779 0.97982395 0.9909024
1.0081593 1.0101815 1.0092573 1.0005405 1.008089 1.0010372 1.0179614 1.0120171
1.0262196 1.032873 0.96801114 1.0045453 1.0058672 0.9922898 0.9689545 1.0268817
00000000: e9f6 7a3f 8d87 7f3f d858 7d3f 5470 7f3f
00000010: c991 813f b438 813f 5ec3 7f3f 6c1e 843f
00000020: e6cc 7d3f cfa2 7b3f be5e 7b3f 869c 793f
00000030: f7b0 803f e4ea 7f3f bed5 7a3f c8ab 7d3f
00000040: 5d0b 813f a14d 813f 582f 813f b611 803f
00000050: 0f09 813f fd21 803f 8f4c 823f c789 813f
00000060: 2a5b 833f 2f35 843f 94cf 773f f194 803f
00000070: 42c0 803f b406 7e3f 670d 783f dc70 833f

bn2.bias f4 [32]
-0.021692615 -0.022057744 -0.00977158 -0.017558232 -0.020223495 -0.04350987 -0.004711033 -0.009348732
-0.0074282456 -0.011960704 -0.0018637816 -0.018893233 -0.0121745905 -0.019075101 -0.036847025 -0.019030437
-0.032550108 -0.010697161 -0.0046862415 0.008845656 -0.041836772 0.004765329 -0.002693692 -0.00014526432
-0.0030384988 0.0012031402 -0.03992393 0.0033415381 -0.020637516 -0.023005735 -0.017058084 -0.0134237055
00000000: b6b4 b1bc 71b2 b4bc fa18 20bc 48d6 8fbc
00000010: beab a5bc 6837 32bd 025f 9abb 6d2b 19bc
00000020: a468 f3bb d4f6 43bc 224a f4ba fbc5 9abc
00000030: ef77 47bc 6343 9cbc e8ec 16bd b8e5 9bbc
00000040: 4353 05bd 2543 2fbc 0b8f 99bb 5fed 103c
00000050: 095d 2bbd 7a26 9c3b a788 30bb 1852 18b9
00000060: 8d21 47bb b0b2 9d3a 4687 23bd b5fd 5a3b
00000070: 0210 a9bc 8676 bcbc 65bd 8bbc 1aef 5bbc

bn2.running_mean f4 [32]
0.0920506 0.280452 -0.37473473 -0.08211337 -0.10118621 -0.4648951 0.2312309 0.42001408
-0.19301333 -0.37488097 -0.29681304 -0.12971961 0.12553841 0.011746453 -0.027472029 0.4107929
-0.27576232 0.13707435 0.29240385 -0.100975744 -0.1782043 0.052406255 -0.73873305 0.41023242
-0.19361903 0.2495621 0.2509074 -0.08551365 0.1750927 -0.1295291 0.19062835 -0.21581896
00000000: 0685 bc3d 6897 8f3e 3bdd bfbe 0e2b a8bd
00000010: b73a cfbd bb06 eebe cbc7 6c3e 160c d73e
00000020: 49a5 45be 66f0 bfbe e1f7 97be 38d5 04be
00000030: 248d 003e 3274 403c 050d e1bc 7253 d23e
00000040: b830 8dbe 385d 0c3e f5b5 953e 5fcc cebd
00000050: 307b 36be f1a7 563d 9c1d 3dbf fc09 d23e
00000060: 1144 46be 358d 7f3e ef76 803e c821 afbd
00000070: 804b 333e 47a3 04be 1434 433e a5ff 5cbe

bn2.running_var f4 [32]
0.11424913 0.124000594 0.14812234 0.15241195 0.09255515 0.327821 0.2221167 0.1345422
0.2636659 0.2440382 0.14936192 0.24910852 0.22808784 0.17955083 0.14725411 0.16962744
0.10471294 0.13111176 0.21384913 0.20352443 0.11520812 0.13368192 0.16330801 0.17622153
0.14863333 0.14469321 0.31275555 0.116955325 0.18763322 0.22114564 0.18944825 0.12558988
00000000: 73fb e93d 06f4 fd3d 62ad 173e e111 1c3e
00000010: 8e8d bd3d 27d8 a73e 8f72 633e 6ec5 093e
00000020: 38ff 863e 26e5 793e 55f2 183e 4e16 7f3e
00000030: dc8f 693e 2cdc 373e c8c9 163e d1b2 2d3e
00000040: bd73 d63d 2942 063e 44fb 5a3e b568 503e
00000050: 3cf2 eb3d eae3 083e 373a 273e 6b73 343e
00000060: 5633 183e 752a 143e 7f21 a03e 4686 ef3d
00000070: ec22 403e 0174 623e b9fe 413e a29a 003e

conv3.weight f4 [32, 32, 5, 5]
-0.001723909 -0.040627107 -0.007214527 0.03647895 0.0027054308 0.02589033 0.022838606 0.018759629
-0.0021335175 -0.031664994 -7.19703e-05 -0.004393002 0.017911905 0.041603364 0.049173906 0.0034741557
-3.1302257e-05 0.022806952 -0.0005820881 -0.05649404 -0.014275709 -0.020410798 0.021326687 0.023278031
0.030277783 -0.006926977 0.029803349 0.02654294 -0.027925378 0.012096512 -0.0039847237 0.010549669
-0.0015156934 -0.015098665 -0.0115970345 0.014964412 0.01950329 0.025664508 0.013883188 -0.018824345
0.0058104945 -0.0042213327 0.04231122 -0.0012444431 0.02859435 -0.012071361 -0.017585153 0.05666785
0.015759056 0.026432788 0.007962581 -0.02237256 0.0025619355 0.044853136 -0.016722534 0.024687994
0.009370108 -0.028439367 0.010958063 -0.005028279 0.014538192 -0.028631967 0.021003356 -0.05912525
0.016463242 -0.0022061558 -0.02390193 -0.024016757 -0.04070732 -0.007744748 -0.018523715 -0.02339225
0.02482335 0.01247006 -0.01654467 -0.017475188 0.0055104448 0.027731368 -0.030277198 0.035974976
0.024161233 -0.001084558 0.0148493545 -0.021472009 -0.056064103 0.03700613 0.019140864 -0.015333737
-0.024203053 0.01342556 0.004633547 0.020522853 0.012320815 0.02762866 -0.00016087835 0.033544898
-0.026316322 -0.018168012 0.018856747 0.02107233 -0.051895086 -0.01338862 -0.019279957 4.3535085e-05
-0.023297116 0.036774546 -0.024805835 0.024176167 -0.005001038 -0.045065884 0.020389426 0.0002318847
-0.024851058 0.020786798 -0.014906783 0.02042842 -0.02391448 -0.021058097 -0.008283536 0.0035735602
-0.022177506 0.045235988 0.022766389 -0.0025473898 0.00849635 0.02358472 -0.016891086 0.03401233
-0.044789672 -0.01237756 0.005550738 0.009038795 0.019424012 0.0077278623 0.014082045 -0.013941201
0.0031617638 0.024055256 -0.010900474 0.04108023 0.017987492 0.020716187 0.020889267 0.0058685043
-0.037216417 -0.015632465 -0.034745216 0.038406223 -0.008194937 0.016132684 0.018253881 0.012190444
-0.017167302 -0.014327677 0.0017893336 -0.02621176 0.008124 0.0028654595 -0.020949753 -0.04215212
0.00219635 -0.02465785 0.035364397 0.05410839 0.02506872 0.026923122 0.0083621815 -0.036816187
0.030990086 0.020456845 0.033134725 0.06648609 0.010527758 -0.014681752 -0.0017778892 -0.032160155
-0.033180736 0.023304125 -0.0005474965 0.030748416 -0.0049129883 0.017392678 -0.022270305 0.0025542944
0.017686013 -0.022341028 0.044858642 -0.025088284 0.014333076 -0.011661105 -0.00661146 0.0055986787
-0.016597573 -0.04982726 0.0020191888 -0.0068649147 -0.012611581 -0.00910791 0.018059874 0.018943604
-0.009496034 0.0021677453 0.022689488 -0.008271307 -0.042326972 -0.053125203 -0.045313086 -0.03281365
-0.012184883 0.012174461 0.02492682 -0.025846306 -0.02426612 -0.030334657 -0.01038639 0.029019326
-0.004843916 0.005209322 -0.013352863 0.002697202 -0.01708408 0.017120285 -0.02258858 0.027810216
-0.00094058784 0.029129913 0.02911194 -0.029993186 -0.005306659 0.028363012 0.018412076 0.023848096
-0.01120942 -0.0068358337 -0.013236268 -0.007666231 0.024544548 0.026850333 0.03476213 0.0013593911
0.00020610004 0.033593573 -0.00875338 0.037187554 -0.02008491 -0.055324316 0.005553035 0.0339119
0.013417154 0.038967483 -0.009583111 -0.029922727 0.016974714 0.019636465 0.032223184 0.01130474
00000000: caf4 e1ba 9c68 26bd d767 ecbb f46a 153d
00000010: 994d 313b f517 d43c 0718 bb3c cbad 993c
00000020: 7cd2 0bbb 27b3 01bd c3ee 96b8 2cf3 8fbb
00000030: fdbb 923c 4a68 2a3d 946a 493d a9ae 633b
00000040: 8b4a 03b8 a5d5 ba3c 4597 18ba 4b66 67bd
00000050: aae4 69bc 8c34 a7bc 4eb5 ae3c 92b1 be3c
00000060: 1d09 f83c b2fb e2bb 2726 f43c 9470 d93c
00000070: c3c3 e4bc 7330 463c 4992 82bb 85d8 2c3c
00000080: 3baa c6ba 6460 77bc 7d01 3ebc 4b2d 753c
00000090: 5dc5 9f3c 603e d23c 5076 633c 8335 9abc
000000a0: f665 be3b 1b53 8abb 884e 2d3d 951c a3ba
000000b0: b33e ea3c f5c6 45bc bd0e 90bc 8c1c 683d
000000c0: 2319 813c 9389 d83c 7c75 023c a946 b7bc
000000d0: 25e6 273b ecb7 373d b2fd 88bc 7a3e ca3c
000000e0: 1585 193c adf9 e8bc 7389 333c 43c4 a4bb
000000f0: 9931 6e3c 968d eabc 3b0f ac3c 512d 72bd
00000100: ecdd 863c 2795 10bb fbcd c3bc cabe c4bc
00000110: b8bc 26bd a8c7 fdbb 0cbf 97bc 1ba1 bfbc
00000120: 575a cb3c 394f 4c3c b088 87bc 2028 8fbc
00000130: f690 b43b e52c e33c e307 f8bc 7f5a 133d
00000140: c7ed c53c ba27 8eba b54a 733c 11e6 afbc
00000150: 79a3 65bd bd93 173d 4dcd 9c3c 5b3a 7bbc
00000160: 7b45 c6bc e1f6 5b3c 02d5 973b 8b1f a83c
00000170: 3edd 493c 8055 e23c 74b1 28b9 6066 093d
00000180: 5495 d7bc 15d5 94bc 7779 9a3c e19f ac3c
00000190: f18f 54bd f15b 5bbc 00f1 9dbc 7199 3638
000001a0: 98d9 bebc e8a0 163d 9b35 cbbc 190d c63c
000001b0: bfdf a3bb 0197 38bd ba07 a73c 1326 7339
000001c0: 7294 cbbc 1349 aa3c 943b 74bc 8059 a73c
000001d0: 4de8 c3bc 0882 acbc abb7 07bc 6432 6a3b
000001e0: 9aad b5bc 5f49 393d 9480 ba3c 1cf2 26bb
000001f0: 4634 0b3c be34 c13c 2d5f 8abc 8350 0b3d
00000200: 6075 37bd 40cb 4abc f7e2 b53b 7417 143c
00000210: 1b1f 9f3c 023a fd3b 61b8 663c a369 64bc
00000220: 9835 4f3b 870f c53c e797 32bc be43 283d
00000230: 815a 933c feb4 a93c f81f ab3c 954c c03b
00000240: 3e70 18bd a80f 80bc 0051 0ebd d84f 1d3d
00000250: 0f44 06bc b128 843c 2a89 953c 6eba 473c
00000260: 71a2 8cbc a2be 6abc 1388 ea3a 0bba d6bc
00000270: 871a 053c 6fca 3b3b d19e abbc b4a7 2cbd
00000280: a3f0 0f3b 42ff c9bc 42da 103d c2a0 5d3d
00000290: eb5c cd3c e18d dc3c 8801 093c 92cc 16bd
000002a0: ecde fd3c 1d95 a73c 47b8 073d dc29 883d
000002b0: 9e7c 2c3c bb8b 70bc 1008 e9ba 5eba 03bd
000002c0: 86e8 07bd 4be8 be3c de85 0fba 1ae4 fb3c
000002d0: 22fd a0bb 177b 8e3c 3770 b6bc f365 273b
000002e0: 42e2 903c 8804 b7bc b2bd 373d f285 cdbc
000002f0: 47d5 6a3c 380e 3fbc f2a4 d8bb 1f75 b73b
00000300: a2f7 87bc ab17 4cbd 5e54 043b 14f3 e0bb
00000310: cea0 4ebc 5839 15bc 4df2 933c 9e2f 9b3c
00000320: 4195 1bbc bb10 0e3b 4edf b93c 6084 07bc
00000330: 0c5f 2dbd d099 59bd 379a 39bd 9b67 06bd
00000340: 1aa3 47bc 6477 473c 5533 cc3c a2bb d3bc
00000350: bec9 c6bc 6380 f8bc ad2b 2abc f0b9 ed3c
00000360: b6b9 9ebb f6b2 aa3b f7c5 5abc 8ac3 303b
00000370: eaf3 8bbc d73f 8c3c b00b b9bc 40d2 e33c
00000380: c891 76ba dba1 ee3c 2a7c ee3c 45b4 f5bc
00000390: 7be3 adbb 8c59 e83c ecd4 963c 155d c33c
000003a0: b7a7 37bc 21ff dfbb efdc 58bc 0235 fbbb
000003b0: a611 c93c 3bf5 db3c bc62 0e3d 992d b23a
000003c0: 8f1c 5839 6a99 093d 566a 0fbc fa51 183d
000003d0: 1c89 a4bc c09b 62bd 3cf6 b53b 34e7 0a3d
000003e0: 9fd3 5b3c 5e9c 1f3d 7b02 1dbc 8220 f5bc
000003f0: 8e0e 8b3c a7dc a03c 75fc 033d 8437 393c

conv3.bias f4 [32]
0.03730179 0.02807274 -0.03126744 -0.03730603 0.030063985 0.015550479 0.008444797 -6.230703e-05
-0.024187068 -0.02917193 -0.02349438 -0.017918095 0.022108557 -0.03448301 0.032940555 0.03197981
0.030427314 0.009275972 0.02282594 0.0051940926 -0.011233282 -0.0093235085 -0.016833033 0.025456933
0.019264996 0.03288719 0.0041341637 0.025684156 -0.019048605 -0.0208063 0.011245979 0.008261117
00000000: c3c9 183d cef8 e53c 4a12 00bd 35ce 18bd
00000010: bf48 f63c 70c7 7e3c 0c5c 0a3c d5aa 82b8
00000020: f523 c6bc f9f9 eebc 4977 c0bc f8c8 92bc
00000030: 011d b53c 0f3e 0dbd adec 063d 43fd 023d
00000040: b442 f93c 3ffa 173c 77fd ba3c 3533 aa3b
00000050: cd0b 38bc a1c1 18bc 6ee5 89bc 0f8b d03c
00000060: a0d1 9d3c b8b4 063d e177 873b 9467 d23c
00000070: d20b 9cbc f971 aabc 0e41 383c a359 073c

bn3.weight f4 [32]
1.008903 1.0097982 1.0337386 1.0217527 0.9983147 0.99874765 1.0169065 1.0048026
1.0190398 1.0277368 1.0231986 1.005524 1.0300952 1.0425943 1.0008087 1.0113275
1.0008407 1.0123366 1.0040746 1.0178288 1.0189439 1.0162201 1.0010197 1.022906
1.0123473 1.0123751 1.0212079 1.0276847 1.0111039 1.0174216 1.0322154 1.0487269
00000000: bc23 813f 1141 813f 8c51 843f cbc8 823f
00000010: 8d91 7f3f edad 7f3f fe29 823f 5f9d 803f
00000020: e56f 823f e18c 833f 2cf8 823f 03b5 803f
00000030: 29da 833f bb73 853f 801a 803f 2e73 813f
00000040: 8c1b 803f 3f94 813f 8485 803f 3748 823f
00000050: c16c 823f 8013 823f 6a21 803f 95ee 823f
00000060: 9994 813f 8295 813f f1b6 823f 2c8b 833f
00000070: da6b 813f df3a 823f a21f 843f af3c 863f

bn3.bias f4 [32]
-0.018145366 0.013743661 0.026619514 0.023280004 -0.0073307273 -0.011876494 0.019071983 -0.0045878356
0.015404876 -0.00021014475 0.0029657863 0.0106420545 0.011123582 0.031934977 -0.00059904816 0.0076182485
-0.009635118 0.014333488 -0.02686396 -7.040869e-05 -0.0073499344 0.00828433 -0.001992483 -0.022043714
0.01604532 0.02458972 0.016731843 -0.0039362786 0.008852693 0.0007275739 0.013346221 0.044033755
00000000: 97a5 94bc 182d 613c 2b11 da3c b5b5 be3c
00000010: 9936 f0bb a095 42bc d93c 9c3c 8e55 96bb
00000020: bc64 7c3c 4d5a 5cb9 a35d 423b 035c 2e3c
00000030: af3f 363c 40ce 023d 7109 1dba 80a2 f93b
00000040: 9ddc 1dbc 02d7 6a3c cf11 dcbc 61a8 93b8
00000050: b8d7 f0bb 00bb 073c 5194 02bb 0595 b4bc
00000060: 7a71 833c 6170 c93c 3811 893c e6fb 80bb
00000070: e30a 113c a8ba 3e3a 1caa 5a3c bd5c 343d

bn3.running_mean f4 [32]
0.58532184 -0.52114516 -0.3739365 -0.92701477 0.09963063 -0.36480248 -0.7778769 0.059659544
-0.9465373 -0.5812839 -0.25701496 -0.92552745 -0.27235585 -0.56691366 0.80766803 -0.7202189
-0.06443723 0.3915675 -0.38731554 -0.3426877 -0.32882845 -0.4260453 -0.8878514 -0.20631224
-0.17874041 -0.058164038 -0.46283707 -0.5449262 -0.72632897 -0.20272668 -0.74689996 0.2570827
00000000: a7d7 153f c569 05bf 9b74 bfbe d750 6dbf
00000010: 250b cc3d 64c7 babe f122 47bf 915d 743d
00000020: 4550 72bf 06cf 14bf 7797 83be 5eef 6cbf
00000030: 3a72 8bbe 4121 11bf 55c3 4e3f 4460 38bf
00000040: abf7 83bd 897b c83e 394e c6be c374 afbe
00000050: 345c a8be 9c22 dabe 3b4a 63bf 8443 53be
00000060: ba07 37be 6a3d 6ebd fbf8 ecbe 4980 0bbf
00000070: b2f0 39bf 9597 4fbe d634 3fbf 58a0 833e

bn3.running_var f4 [32]
0.3924811 0.63209116 0.24003688 0.50180733 0.40546167 0.2433323 0.6178471 0.20411396
0.32740173 0.25123307 0.20235445 0.3697873 0.25514653 0.2044529 0.3357403 0.30565384
0.16316848 0.21253943 0.48986885 0.25739905 0.49417666 0.31599808 0.45414218 0.29052067
0.37332892 0.30222154 0.25496677 0.21884505 0.44251338 0.2564864 0.1840909 0.18458301
00000000: 48f3 c83e bad0 213f 3acc 753e 7276 003f
00000010: ac98 cf3e 1a2c 793e 3a2b 1e3f 4003 513e
00000020: 33a1 a73e 9fa1 803e 0136 4f3e c354 bd3e
00000030: 91a2 823e 1a5c 513e 27e6 ab3e a97e 9c3e
00000040: a315 273e f0a3 593e 17d0 fa3e cfc9 833e
00000050: b904 fd3e 80ca a13e 5385 e83e 20bf 943e
00000060: f824 bf3e c8bc 9a3e 018b 823e eb18 603e
00000070: 1d91 e23e 2f52 833e 5382 3c3e 5403 3d3e

shared_layers.0.weight f4 [128, 128]
0.031182127 -0.097260304 0.14309119 0.073253095 -0.108244725 -0.052414116 -0.030840768 -0.11188723
0.07590909 -0.13931239 0.13393061 -0.10743861 -0.033302244 0.06864885 -0.025982529 0.013942327
0.059438344 0.038025584 -0.041110154 0.02451564 -0.13631667 0.092848 0.080504924 0.002754418
0.13091671 0.06565949 -0.04593074 0.055259295 0.10950802 -0.15368558 0.10739615 0.137819
0.014659867 -0.08079886 0.02686256 -0.06387468 0.1471455 0.07318837 0.06920521 0.100102976
-0.17065847 -0.15115388 -0.023734646 -0.04483419 0.08082038 0.02620427 -0.08883225 -0.0054443316
0.019466668 -0.10395805 -0.08747996 0.06731739 -0.14212787 0.016575908 -0.14408594 -0.07992875
-0.055073176 -0.13003637 0.06427079 -0.13526592 -0.13538055 -0.03059074 -0.03333189 -0.055391166
0.08805953 -0.16202456 -0.09349195 -0.124366745 -0.03227426 0.060391497 -0.005391718 -0.1356344
0.07560076 0.033467993 -0.027844496 -0.007538787 -0.08225386 -0.03779945 0.06759958 -0.036848724
-0.02338683 0.04946209 0.06469925 0.06697176 0.12648395 -0.16797379 0.07536187 -0.03952151
0.057036366 -0.028620692 0.0255236 -0.093417406 0.108280875 -0.1298254 0.15247257 0.07313114
0.08517827 -0.07421676 0.10139016 -0.07990471 0.093105316 -0.110369965 -7.698563e-05 0.11508059
-0.08540132 0.045567628 0.023892589 0.10294539 0.009454152 -0.0009149909 0.0949357 0.030059688
0.12892616 0.086563855 -0.12793389 0.11350458 0.09787267 -0.0012784646 0.15743719 -0.09722347
0.14114016 0.13413504 -0.14282615 0.057858497 -0.06309097 -0.060810108 -0.09237377 -0.093903065
-0.043666393 0.14759775 0.057102077 0.11718264 0.056386992 -0.049053248 0.115768224 -0.03814
0.15548101 -0.037808403 -0.038155235 0.06865427 0.08026398 0.09507612 -0.1266818 -0.122355975
0.1435251 -0.11815643 0.045640193 -0.025535006 -0.016627325 0.05131881 0.07501027 0.032621022
0.05497861 -0.09415075 0.012074373 -0.114748426 -0.008014824 0.12539408 -0.0041541005 -0.036711782
-0.009085282 0.037236474 0.018442445 -0.16333814 0.13772199 -0.07425338 -0.034628626 0.08536626
0.08239676 -0.1129468 0.020487629 0.06922793 0.12804511 0.13354826 -0.019378897 0.13671595
0.051657896 0.07977914 0.010659208 0.012193281 -0.083113156 0.031809404 -0.12369051 0.012460195
0.12130847 -0.118397355 0.0052124676 0.06970166 0.08678981 -0.07133454 0.08104954 0.06532077
0.083748065 0.012978648 -0.073321216 0.036058873 -0.14747436 0.15732591 0.14745496 -0.023928303
-0.05627 0.14368315 0.03532073 -0.042716008 -0.010655879 -0.06350179 0.062255986 -0.01944176
-0.013361595 0.08132903 -0.008939484 0.14371563 -0.12284332 0.04182243 -0.12908804 0.15137587
0.13194294 -0.1288634 -0.022561895 -0.097753905 -0.111109756 0.04190942 -0.06816743 0.091501884
-0.04266101 0.10982792 -0.080105096 0.15775314 -0.076880805 0.099275075 -0.045071583 0.08862405
0.10255701 0.11785205 0.03364032 -0.067211114 0.051995005 0.1013136 -0.10571689 -0.029009694
0.03825385 -0.11282729 -0.11844644 -0.010061649 -0.06391687 -0.12238696 -0.06634812 -0.14253502
0.14879282 0.0889527 0.13672169 0.12429661 0.07957461 0.0041582133 0.10823223 0.13443178
00000000: a971 ff3c 6930 c7bd 7f86 123e b805 963d
00000010: 69af ddbd 2fb0 56bd c7a5 fcbc 2225 e5bd
00000020: 3a76 9b3d e8a7 0ebe 1b25 093e c608 dcbd
00000030: ef67 08bd c597 8c3d 50d9 d4bc 5c6e 643c
00000040: 9f75 733d b7c0 1b3d 1f63 28bd 06d5 c83c
00000050: 9996 0bbe 1827 be3d c4df a43d 7783 343b
00000060: 080f 063e 7c78 863d df21 3cbd 9257 623d
00000070: be45 e03d c15f 1dbe 83f2 db3d 6d20 0d3e
00000080: f02f 703c df79 a5bd df0e dc3c bad0 82bd
00000090: 4fad 163e c9e3 953d 76bb 8d3d ca02 cd3d
000000a0: 18c1 2ebe 15c8 1abe 296f c2bc 0ea4 37bd
000000b0: 2885 a53d 56aa d63c afed b5bd 5d66 b2bb
000000c0: 9078 9f3c f5e7 d4bd b128 b3bd b3dd 893d
000000d0: f889 11be 33ca 873c 448b 13be afb1 a3bd
000000e0: 6994 61bd 4128 05be 67a0 833d 2683 0abe
000000f0: 33a1 0abe 6e99 fabc 0587 08bd d9e1 62bd
00000100: 8e58 b43d c4e9 25be b578 bfbd feb3 febd
00000110: 0432 04bd 135d 773d 02ad b0bb bfe3 0abe
00000120: 92d4 9a3d bc15 093d 241a e4bc ee07 f7bb
00000130: b674 a8bd 99d3 1abd a671 8a3d b0ee 16bd
00000140: bd95 bfbc c398 4a3d 0a81 843d 7d28 893d
00000150: 0285 013e 5201 2cbe 5357 9a3d 4fe1 21bd
00000160: f79e 693d f175 eabc de16 d13c a051 bfbd
00000170: 5dc2 dd3d f3f0 04be c521 1c3e c7c5 953d
00000180: f271 ae3d f5fe 97bd a5a5 cf3d 15a5 a3bd
00000190: 00ae be3d a609 e2bd 5873 a1b8 5faf eb3d
000001a0: e3e6 aebd 1fa5 3a3d 64ba c33c 08d5 d23d
000001b0: 96e5 1a3c 00dc 6fba a66d c23d bc3f f63c
000001c0: 3805 043e 6448 b13d 1a01 03be 1775 e83d
000001d0: 7771 c83d 2792 a7ba 3737 213e 191d c7bd
000001e0: 0c87 103e b25a 093e 0541 12be 08fd 6c3d
000001f0: d735 81bd 0514 79bd 762e bdbd 4050 c0bd
00000200: 88db 32bd dd23 173e dee3 693d 74fd ef3d
00000210: 0cf6 663d 0fec 48bd e417 ed3d b038 1cbd
00000220: 6a36 1f3e fcdc 1abd aa48 1cbd 9c9a 8c3d
00000230: 7161 a43d 45b7 c23d e0b8 01be c595 fabd
00000240: 3ef8 123e 00fc f1bd 36f1 3a3d ca2e d1bc
00000250: 0736 88bc ac33 523d fc9e 993d 9f9d 053d
00000260: 4031 613d 1cd2 c0bd 97d3 453c 3901 ebbd
00000270: 9c50 03bc 4e67 003e 1f1f 88bb 185f 16bd
00000280: 6fda 14bc 4685 183d 9c14 973c 1d42 27be
00000290: fe06 0d3e 2812 98bd bfd6 0dbd 81d4 ae3d
000002a0: a2bf a83d a750 e7bd acd5 a73c 5fc7 8d3d
000002b0: 421e 033e e0c0 083e 7ec0 9ebc 44ff 0b3e
000002c0: 3b97 533d 3f63 a33d f5a3 2e3c 54c6 473c
000002d0: 3b37 aabd 944a 023d 7351 fdbd d925 4c3c
000002e0: 9370 f83d 507a f2bd 59cd aa3b bebf 8e3d
000002f0: dbbe b13d d817 92bd 4dfd a53d e5c6 853d
00000300: 1b84 ab3d 65a4 543c 6f29 96bd 78b2 133d
00000310: 8503 17be 0b1a 213e 6ffe 163e 4a05 c4bc
00000320: 5f7b 66bd ad21 133e 78ac 103d fbf6 2ebd
00000330: ff95 2ebc 3a0d 82bd 2200 7f3d 5344 9fbc
00000340: 97ea 5abc d68f a63d ea76 12bc 312a 133e
00000350: 4795 fbbd ff4d 2b3d a82f 04be 4702 1b3e
00000360: 0d1c 073e c4f4 03be b9d3 b8bc 3333 c8bd
00000370: 838d e3bd 36a9 2b3d 5e9b 8bbd 5765 bb3d
00000380: 50bd 2ebd 76ed e03d 240e a4bd 0a8a 213e
00000390: af73 9dbd bb50 cb3d fb9c 38bd 8780 b53d
000003a0: 6909 d23d 6a5c f13d 6fca 093d fba5 89bd
000003b0: b7f8 543d 817d cf3d 1982 d8bd bda5 edbc
000003c0: 12b0 1c3d ff11 e7bd 0c94 f2bd 9dd9 24bc
000003d0: d9e6 82bd 04a6 fabd 86e1 87bd b3f4 11be
000003e0: 255d 183e d52c b63d c500 0c3e 398f fe3d
000003f0: 03f8 a23d 9f41 883b dca8 dd3d 7ca8 093e

shared_layers.0.bias f4 [128]
0.056918696 0.046888415 -0.04833215 0.00698068 -0.08431018 0.07824916 -0.038214643 -0.02734831
-0.08766528 0.067111924 0.099510685 0.036227554 0.028225798 0.012061193 0.047852367 0.06612945
-0.022492908 0.035595737 -0.012271051 0.043934707 0.010361832 -0.039498653 -0.034960274 0.058607865
0.03610947 -0.020049088 -0.018107697 -0.04657038 -0.031796288 -0.0012479748 0.0674297 -0.030612232
0.031405177 -0.010656744 0.031886533 0.025560217 0.03763265 -0.0036622703 0.09995374 -0.03170265
0.025365155 -0.082975134 0.056473333 0.03504424 -0.021479562 0.10029215 -0.022032639 0.070492275
0.012071664 0.049999893 0.06507458 -0.056042362 0.0062902877 -0.03387991 -0.058122378 0.058210894
0.026950752 -0.07494036 0.033154696 0.068266615 0.027495148 -0.028787304 -0.00502917 0.0028770019
-0.024245981 0.03140383 0.06014015 0.1043061 -0.052900318 -0.012356153 0.09534978 0.04974819
-0.046325635 0.02029508 0.05480724 -0.04119036 -0.08054638 0.034640387 -0.02259925 -0.056142572
0.036196608 -0.023428123 -0.01683085 0.018019423 -0.05986456 -0.03047485 0.0038970122 0.09314317
0.08030256 0.053925116 -0.018232098 -0.019035583 -0.025671862 0.03004863 0.019481832 -0.06399694
0.062069196 -0.011599262 0.058785744 0.09426982 0.0805112 0.04700434 0.009790755 -0.04710569
0.10675938 0.04745737 0.04779682 0.033829946 0.08417186 -0.054149482 -0.055692703 0.017587656
-0.08324214 0.014633191 -0.059758585 -0.035372306 -0.08382133 -0.04352232 0.062952906 -0.016625082
0.050813545 0.011200745 -0.009027142 -0.047833513 -0.069251105 -0.06356567 0.06590961 -0.016733909
00000000: 9423 693d 110e 403d eff7 45bd 30be e43b
00000010: d1aa acbd 1841 a03d f586 1cbd 9009 e0bc
00000020: db89 b3bd fa71 893d 42cc cb3d 5863 143d
00000030: ca39 e73c 4f9c 453c d800 443d e16e 873d
00000040: 0c43 b8bc d6cc 113d 850c 49bc e1f4 333d
00000050: acc4 293c 57c9 21bd 8132 0fbd cd0e 703d
00000060: 86e7 133d fc3d a4bc 9856 94bc 95c0 3ebd
00000070: d33c 02bd 1693 a3ba 9518 8a3d 81c6 fabc
00000080: b7a2 003d a099 2ebc 749b 023d a963 d13c
00000090: b224 1a3d b302 70bb 8cb4 cc3d a3da 01bd
000000a0: 96ca cf3c deee a9bd 9550 673d 8d8a 0f3d
000000b0: e8f5 afbc f965 cd3d cb7d b4bc 415e 903d
000000c0: 3bc8 453c b0cc 4c3d d245 853d ad8c 65bd
000000d0: c21e ce3b a9c5 0abd bb11 6ebd 8c6e 6e3d
000000e0: d3c7 dc3c 557a 99bd 38cd 073d 5ecf 8b3d
000000f0: 813d e13c 5ad3 ebbc bccb a4bb 158c 3c3b
00000100: 829f c6bc 4da1 003d 8555 763d 709e d53d
00000110: 01ae 58bd 7671 4abc bf46 c33d c2c4 4b3d
00000120: f3bf 3dbd de41 a63c 8e7d 603d 39b7 28bd
00000130: 80f5 a4bd 14e3 0d3d 1022 b9bc c1f5 65bd
00000140: e542 143d 56ec bfbc dae0 89bc 789d 933c
00000150: 8a34 75bd 65a6 f9bc 0465 7f3b d9c1 be3d
00000160: ab75 a43d 95e0 5c3d 7b5b 95bc 83f0 9bbc
00000170: cc4d d2bc 8b28 f63c 5d98 9f3c d410 83bd
00000180: 453c 7e3d d50a 3ebc 52c9 703d 8910 c13d
00000190: 0ee3 a43d 9f87 403d 6769 203c e5f1 40bd
000001a0: a9a4 da3d a962 423d 99c6 433d 4591 0a3d
000001b0: 4c62 ac3d d9cb 5dbd 081e 64bd fd13 903c
000001c0: db7a aabd 0dc0 6f3c 6bc5 74bd 8de2 10bd
000001d0: 84aa abbd 7644 32bd 74ed 803d 5331 88bc
000001e0: dd21 503d 5483 373c 94e6 13bc 13ed 43bd
000001f0: 86d3 8dbd b82e 82bd 9efb 863d 8d15 89bc

shared_layers.1.weight f4 [64, 128]
-0.18408403 -0.08192407 -0.13455206 0.0913644 0.08101666 -0.06407652 -0.035994075 0.13782604
-0.000989375 -0.069486655 -0.16216853 -0.08657161 0.06781805 -0.1468653 -0.085802734 -0.13045606
0.16018482 0.011119595 0.09242113 -0.040010445 -0.1437299 0.16637242 0.1204993 -0.016077625
0.028125672 -0.08064682 0.017791037 0.16798104 -0.031241477 -0.014375301 0.076118805 -0.034493156
0.09111177 -0.17143199 0.045930058 -0.016209811 -0.05288255 -0.023595592 -0.135433 0.022670105
0.17883958 0.037699647 -0.14352635 0.15156324 -0.12312493 -0.109706014 -0.025268048 0.14454225
-0.1230047 0.04473061 -0.09317263 0.057655375 -0.14019409 -0.17587365 0.12934935 -0.030312248
-0.05906793 0.13556978 0.16881439 0.14626074 0.09556129 -0.16226557 0.0981092 0.07793368
0.008889334 -0.074153066 0.107178025 -0.025910614 -0.13598414 -0.086430736 -0.058394127 0.025021054
0.14720641 0.07589938 -0.10280787 0.13835081 -0.1263866 -0.057936344 0.11077035 0.14988415
0.09640988 -0.12538895 -0.1640397 0.041528076 0.003321776 -0.13399854 0.13321336 -0.113799796
0.020732546 -0.09075208 0.10628439 0.07015711 0.14749797 0.022106828 -0.051773082 -0.08050921
-0.00899053 -0.084053725 0.15465614 -0.14286631 -0.015384035 -0.05690845 0.026007604 0.13227616
0.16633523 -0.04157336 -0.055170845 -0.17369716 -0.07357096 0.15203193 -0.1230432 -0.15132198
0.056597304 -0.17839774 0.052909587 -0.06559595 0.0032053564 -0.17370003 0.16389777 -0.1622392
-0.038051806 -0.049589764 0.0036193647 0.032045756 0.06448674 -0.094857596 -0.10979514 0.00669116
-0.065121815 0.0074828495 -0.017576013 -0.0940518 0.10804799 0.12863924 0.021996666 -0.054420188
-0.03649479 0.14967656 -0.038768582 5.0254723e-05 0.08301507 -0.118468285 -0.06298022 -0.046819374
-0.029566461 0.16302958 0.081947565 -0.068559915 -0.15469024 0.13781267 -0.10352701 -0.119388364
-0.09657232 -0.14596649 0.16964312 -0.04090792 0.20415351 0.07052627 -0.06404297 -0.20246723
0.10661549 0.093799934 0.06080496 0.15676835 -0.13123323 -0.10140106 0.043573156 -0.12527701
-0.1764534 0.12508728 -0.10960956 0.18057247 -0.005950566 -0.1228145 0.15266383 -0.03611699
-0.114834845 0.059053384 -0.0048026224 -0.19502965 -0.14013334 -0.029523103 -0.045497306 0.036150355
0.11861516 0.12574273 -0.1390093 -0.09673488 0.18707865 -0.042139158 -0.088380404 -0.15810241
-0.15550569 -0.07452548 0.18149425 -0.1397715 -0.1941397 0.019940954 -0.08335809 0.007171841
0.090946674 -0.1356578 -0.062576644 0.13153084 -0.03934496 -0.14425947 0.013196759 -0.0022887322
-0.14177057 -0.012757365 0.09465439 -0.14372028 0.12710384 0.09737177 -0.12220881 0.16343887
0.060013086 0.002845599 0.16277285 -0.08575607 -0.007114802 -0.059054125 -0.025242468 -0.18256544
-0.14419307 0.024809904 -0.07511621 -0.10724223 -0.13614404 -0.003357086 -0.14202267 -0.14935003
0.02584542 0.015868312 -0.002408382 -0.13534188 0.12681174 -0.075464346 -0.051427778 0.09975109
0.02422754 0.18515064 -0.14620042 -0.033979934 -0.006761608 -0.16400936 -0.027256029 0.15299496
-0.018083973 0.046471864 -0.032887463 -0.0803206 0.16721791 -0.1830651 0.0908012 -0.10383237
00000000: 8680 3cbe cfc7 a7bd 04c8 09be 421d bb3d
00000010: 10ec a53d 8d3a 83bd 866e 13bd 4522 0d3e
00000020: ebad 81ba 054f 8ebd 820f 26be 754c b1bd
00000030: 31e4 8a3d db63 16be 58b9 afbd 4696 05be
00000040: 7d07 243e f62e 363c 4a47 bd3d fee1 23bd
00000050: ee2d 13be 885d 2a3e 56c8 f63d 39b5 83bc
00000060: cf67 e63c 292a a5bd 82be 913c 3903 2c3e
00000070: 20ee ffbc 6286 6bbc 2de4 9b3d b248 0dbd
00000080: cf98 ba3d de8b 2fbe 2821 3c3d 70ca 84bc
00000090: 5f9b 58bd 8b4b c1bc f3ae 0abe a8b6 b93c
000000a0: b921 373e f26a 1a3d 92f8 12be 6533 1b3e
000000b0: ec28 fcbd 8cad e0bd f0fe cebc e202 143e
000000c0: e3e9 fbbd 7237 373d 4bd1 bebd 0b28 6c3d
000000d0: 0a8f 0fbe 3918 34be 2874 043e 6451 f8bc
000000e0: 37f1 71bd ced2 0a3e aedd 2c3e 60c5 153e
000000f0: a3b5 c33d f228 26be 7aed c83d b19b 9f3d
00000100: 92a4 113c 90dd 97bd 2780 db3d 7f42 d4bc
00000110: 6d3f 0bbe 9902 b1bd ae2e 6fbd f4f8 cc3c
00000120: 47bd 163e 2271 9b3d ef8c d2bd d6ab 0d3e
00000130: 7d6b 01be a94e 6dbd 91db e23d 3b7b 193e
00000140: 8b72 c53d f665 00be 06fa 27be 5819 2a3d
00000150: 27b2 593b ea36 09be 1569 083e de0f e9bd
00000160: 4dd7 a93c 3adc b9bd a1ab d93d 88ae 8f3d
00000170: b509 173e 6119 b53c 0310 54bd 03e2 a4bd
00000180: 044d 13bc 5c24 acbd 2e5e 1e3e 8c4b 12be
00000190: 520d 7cbc d618 69bd e60d d53c 6773 073e
000001a0: c853 2a3e d448 2abd d3fa 61bd abdd 31be
000001b0: 5fac 96bd 42ae 1b3e 13fe fbbd 26f4 1abe
000001c0: 93d2 673d e6ad 36be b9b7 583d 2b57 86bd
000001d0: f510 523b 6cde 31be d1d4 273e 0822 26be
000001e0: 36dc 1bbd a31e 4bbd dd32 6d3b 6942 033d
000001f0: a011 843d b344 c2bd 46dc e0bd 8541 db3b
00000200: 965e 85bd b132 f53b 92fb 8fbc 3b9e c0bd
00000210: 4448 dd3d 01ba 033e 5a32 b43c b4e7 5ebd
00000220: 907b 15bd d044 193e cecb 1ebd 99c8 5238
00000230: ce03 aa3d 809f f2bd c6fb 80bd acc5 3fbd
00000240: 5d35 f2bc 3af1 263e 20d4 a73d 2469 8cbd
00000250: 1e67 1ebe c41e 0d3e f805 d4bd e381 f4bd
00000260: b5c7 c5bd 3d78 15be edb6 2d3e 108f 27bd
00000270: 9e0d 513e 1470 903d f628 83bd 9253 4fbe
00000280: 3959 da3d 2e1a c03d 9f0e 793d e287 203e
00000290: 0162 06be 5cab cfbd c479 323d 9e48 00be
000002a0: 33b0 34be e116 003e fa7a e0bd fde7 383e
000002b0: f7fc c2bb 2b86 fbbd e853 1c3e 69ef 13bd
000002c0: 882e ebbd f6e1 713d 515f 9dbb dab5 47be
000002d0: 1d7f 0fbe 6fda f1bc 625b 3abd 6512 143d
000002e0: 81ec f23d b4c2 003e 7458 0ebe f01c c6bd
000002f0: 8c91 3f3e 1c9a 2cbd c900 b5bd 99e5 21be
00000300: e23c 1fbe d1a0 98bd a1d9 393e 4320 0fbe
00000310: 8fcc 46be 365b a33c a5b7 aabd c301 eb3b
00000320: 4042 ba3d e1e9 0abe 2f28 80bd 05b0 063e
00000330: 2e28 21bd c1b8 13be 3837 583c 8efe 15bb
00000340: 4e2c 11be 4404 51bc 29da c13d 692b 13be
00000350: 8227 023e da6a c73d 9d48 fabd 855c 273e
00000360: 48d0 753d 3b7d 3a3b edad 263e e1a0 afbd
00000370: 4923 e9bb bde2 71bd 4bc9 cebc 6ff2 3abe
00000380: 59a7 13be 243e cb3c 87d6 99bd d0a1 dbbd
00000390: 5869 0bbe 8f02 5cbb 646e 11be 37ef 18be
000003a0: c6b9 d33c 43fe 813c f2d5 1dbb 1097 0abe
000003b0: f0da 013e 0d8d 9abd efa5 52bd 4d4a cc3d
000003c0: d578 c63c 2198 3d3e 90b5 15be 8b2e 0bbd
000003d0: 7b90 ddbb 12f2 27be 0948 dfbc b6aa 1c3e
000003e0: d724 94bc 4859 3e3d 01b5 06bd 207f a4bd
000003f0: 2c3b 2b3e 6b75 3bbe fbf5 b93d 11a6 d4bd

shared_layers.1.bias f4 [64]
0.038393565 -0.042581286 -0.07171369 -0.0693334 0.0086737145 0.0079438845 -0.068498775 0.045940295
0.017623572 0.04256012 0.04339942 -0.02963774 0.070276834 0.08696997 -0.002711038 -0.03752635
-0.020915536 0.005049281 -0.025092028 0.09939984 0.011720875 0.094082184 0.006959234 0.008723215
-0.0027391617 -0.038800977 0.06590679 0.002872458 -0.060626887 0.042320717 0.038533963 0.11335934
0.041670505 -0.05733222 -0.064593054 0.013343645 0.04498172 -0.005912065 -0.0034302291 -0.051665112
0.072308965 -0.021055963 0.06287771 -0.062433973 0.043900352 0.05235935 0.068239145 -0.0024581128
0.04945562 0.09083767 0.10548468 -0.037394594 0.035760634 -0.11653949 0.012932546 -0.07645956
-0.05321785 0.09256487 0.0756231 -0.03211897 0.08798564 0.05536789 -0.031729907 -0.011124613
00000000: 9242 1d3d b769 2ebd a1de 92bd abfe 8dbd
00000010: 321c 0e3c 1127 023c 1649 8cbd e42b 3c3d
00000020: 4f5f 903c 8553 2e3d 97c3 313d d9ca f2bc
00000030: 4ded 8f3d 501d b23d acab 31bb 3bb5 19bd
00000040: 0f57 abbc 7074 a53b cc8d cdbc 2592 cb3d
00000050: ea08 403c 29ae c03d 490a e43b d1eb 0e3c
00000060: 8283 33bb c6ed 1ebd 24fa 863d d93f 3c3b
00000070: e653 78bd 7d58 2d3d cad5 1d3d f128 e83d
00000080: b1ae 2a3d 31d5 6abd 5d49 84bd 4e9f 5a3c
00000090: c13e 383d ffb9 c1bb b2cd 60bb cc9e 53bd
000000a0: b916 943d 8e7d acbc 07c6 803d c4ba 7fbd
000000b0: dbd0 333d c276 563d f7c0 8b3d 4a18 21bb
000000c0: fa91 4a3d 1a09 ba3d 5a08 d83d 132b 19bd
000000d0: be79 123d 42ac eebd 08e3 533c d496 9cbd
000000e0: f6fa 59bd a792 bd3d 49e0 9a3d 2e8f 03bd
000000f0: d131 b43d 71c9 623d 38f7 01bd 0244 36bc
