models/policy_ppo_m50_normal2.pt (torch, 912104 bytes, 76 tensors)

sigma f4 [5]
0	0x00000000	0.0
1	0x00000000	0.0
2	0x00000000	0.0
3	0x00000000	0.0
4	0x00000000	0.0

conv1.weight f4 [16, 3, 5, 5]
0	0xbb995bb2	-0.0046801204
1	0x3d8ad75a	0.06779356
2	0xbdb8ad2e	-0.090174064
3	0xbda0ea36	-0.07857172
4	0xbd0c5f7b	-0.034270745
5	0x3d3ba486	0.0458112
6	0xba0fcf56	-0.00054859126
7	0x3dcc7a3f	0.09984254
8	0xbd1ef19c	-0.038804635
9	0x3a814bc2	0.0009864497
10	0xbd28d275	-0.041216332
11	0xbcd4e166	-0.025986385
12	0xbdf99ffb	-0.12188717
13	0xbde5ca53	-0.11220231
14	0xbd9abd8d	-0.07555685
15	0xbb12cc13	-0.002239947
16	0x3d50578d	0.050864745
17	0x3d68e85d	0.056862224
18	0xbdbf557e	-0.09342478
19	0xbd317f36	-0.04333421
20	0x3d3088aa	0.043099083
21	0x3dcac9aa	0.099017456
22	0xbbed2084	-0.007236542
23	0x3dce6fee	0.10079943
24	0xbb51ce48	-0.0032013822
25	0x3c6a9e10	0.014319912
26	0x3dc7d44f	0.097572915
27	0xbddaf29e	-0.10690807
28	0xbd5f27d7	-0.054481354
29	0xbc7a6abf	-0.015284239
30	0xbced9902	-0.029003624
31	0x3dcf70db	0.10128947
32	0xbd850f77	-0.0649709
33	0xbd2add9d	-0.041715253
34	0xbd9ffd15	-0.078119434
35	0xbdde894d	-0.10866032
36	0xbd62b08b	-0.055344146
37	0x3dceae6d	0.10091863
38	0x3d4b4542	0.049626596
39	0x3d7babe4	0.061443225
40	0x3ca5d576	0.020243388
41	0xbd3c6dd2	-0.04600317
42	0x3c74186f	0.014898404
43	0xbdf9dda3	-0.12200477
44	0xbdd13d9f	-0.102168314
45	0xbcf4e41e	-0.029893931
46	0x3db60b1f	0.0888884
47	0x3d979a27	0.07402449
48	0xbd5d723c	-0.05406402
49	0xbc15cd2b	-0.009143154
50	0x3d5392fd	0.05165385
51	0x3dd042e5	0.10169009
52	0x3d4a3a94	0.04937227
53	0x3cedf229	0.029046135
54	0x3daf396f	0.085558765
55	0xbdca7eb0	-0.09887445
56	0xbbce24bf	-0.0062910016
57	0xbdb26d3b	-0.0871224
58	0xbda6d4de	-0.0814607
59	0xbd78d748	-0.060752183
60	0x3d2c1b7b	0.042018395
61	0x3c9eb904	0.019375332
62	0xbdb035a4	-0.08603981
63	0x3c92c96a	0.017918307
64	0x3d396ffc	0.045272812
65	0xbc0b68f9	-0.008508914
66	0x3b64f307	0.0034934895
67	0x3cd32afd	0.025777334
68	0x3d84de7f	0.0648775
69	0x3dc5226d	0.09625707
70	0xbd9d5fbc	-0.076842755
71	0xbd336094	-0.043793276
72	0x3d51e238	0.05124113
73	0x3dd753e8	0.10514051
74	0x3dda0404	0.10645297
75	0x3dd827c0	0.10554457
76	0x3d053894	0.03252466
77	0xbdb316f6	-0.08744614
78	0x3d3ff233	0.04686184
79	0xbd02ede5	-0.031965155
80	0xbdd01ce2	-0.10161759
81	0x3ddbe999	0.107379146
82	0x3dd35281	0.10318471
83	0xbdc7e1d0	-0.09759867
84	0x3d4d3420	0.05009854
85	0xbb18b133	-0.0023298978
86	0xbcc6d0c2	-0.024269465
87	0xbd324d39	-0.043530677
88	0x3d41dcbd	0.047329653
89	0xbd6b1a0c	-0.057397887
90	0x3d46f97f	0.04857778
91	0x3d39d01a	0.045364477
92	0x3dbac78c	0.09120092
93	0x3d23e1b6	0.040010177
94	0xbe027174	-0.12738591
95	0xbd8613f8	-0.065467775
96	0x3d51fc49	0.05126599
97	0x3cb262c1	0.021775605
98	0xbdb3ffae	-0.087890014
99	0xbda2dd80	-0.07952404
100	0x3df328c8	0.11873013
101	0x3db2416a	0.08703883
102	0xbd290a3a	-0.04126952
103	0xbc834e91	-0.016028674
104	0xbdddacd5	-0.10823981
105	0x3c8d9b59	0.01728599
106	0xbda50ec7	-0.08059459
107	0xbda0369b	-0.07822915
108	0x3c675095	0.014118333
109	0x3cfb8efb	0.030707827
110	0xbd14a2d2	-0.03628809
111	0x3d98c47b	0.07459351
112	0xbd908b76	-0.0705785
113	0x3dd44a35	0.10365716
114	0x3dc81159	0.09768934
115	0xbdc711ad	-0.09720168
116	0xbc90eb22	-0.017690245
117	0x3cff2850	0.031147152
118	0x3ca2218d	0.019791389
119	0x3d381f60	0.044951797
120	0x3d62e21c	0.055391416
121	0x3cb891b2	0.02253041
122	0xbd277cd6	-0.040890537
123	0x3d9cf84b	0.076645456
124	0xbdc274c4	-0.094949275
125	0xbdb7f1ca	-0.089816645
126	0xbd0f4780	-0.034980297
127	0xbd328573	-0.0435843
128	0x3b073057	0.0020628178
129	0xbd4b107c	-0.049576268
130	0xbcf36532	-0.02971134
131	0x3c93e2cc	0.018052481
132	0xbd87f42d	-0.0663837
133	0x3b6dbb2d	0.0036274896
134	0x3dcf233d	0.10114143
135	0xbcd1aaea	-0.025594193
136	0xbace2f13	-0.0015730582
137	0xbcb7d62c	-0.022440992
138	0x3bc04cdd	0.005868538
139	0x3da43208	0.08017355
140	0x3de63b1b	0.11241742
141	0x3da0cfff	0.07852172
142	0x3dfa14f9	0.122110315
143	0xbcc8cacf	-0.02451077
144	0xbdf6fec8	-0.120603144
145	0xbd394212	-0.045229025
146	0x3db86812	0.09004225
147	0x3c035251	0.008015231
148	0xbd818382	-0.06323911
149	0xbde3efc7	-0.11129718
150	0xbe0aaced	-0.13542528
151	0xbdddad3d	-0.10824058
152	0xbd09b11b	-0.033616167
153	0x3d9312d2	0.07181324
154	0x3da404a3	0.08008697
155	0xbde3eb71	-0.11128891
156	0x3d792a4d	0.060831357
157	0xbdc3e68b	-0.09565457
158	0xbc4009f6	-0.011721125
159	0xbc712269	-0.014717677
160	0xbcc0de64	-0.023543544
161	0xbc9c551f	-0.019083558
162	0xbdb01f6e	-0.08599745
163	0xbdb34af0	-0.087545276
164	0x3cc48231	0.023987861
165	0x3c40cbe3	0.01176736
166	0xbd2ce258	-0.042208046
167	0x3d8eb787	0.06968599
168	0xbda78b75	-0.08180896
169	0x3cf8f88f	0.03039196
170	0x3def2a7c	0.11678025
171	0xbd416985	-0.047219772
172	0x3dead731	0.11466826
173	0x3d1403aa	0.036136307
174	0xbdd215d5	-0.102580704
175	0x3d5e6573	0.05429597
176	0xbcfcba8f	-0.030850677
177	0xbd844243	-0.06457951
178	0x3dbdd4be	0.09269093
179	0xbd4d7c28	-0.050167233
180	0x3c8f5431	0.0174962
181	0xbc55c044	-0.013046328
182	0x3dac49ec	0.08412537
183	0x3d148912	0.036263533
184	0x3d990142	0.07470943
185	0x3d56b841	0.052421812
186	0xbbcf5070	-0.0063267276
187	0xbcc0ea71	-0.02354929
188	0xbdac7801	-0.084213264
189	0x3da5f564	0.08103445
190	0x3d94fce0	0.072747946
191	0x3d8e36bd	0.06944034
192	0xbd7021c1	-0.05862594
193	0x3c11f157	0.008907638
194	0xbda1506e	-0.07876669
195	0xbdc6c247	-0.09705024
196	0xbde20ce3	-0.11037614
197	0x3d09b2ae	0.033617668
198	0xbdc7a038	-0.09747356
199	0xbc82d280	-0.015969515
200	0xbbac7665	-0.005263137
201	0x3d96a18c	0.07355031
202	0xbda5d02d	-0.08096347
203	0xbd72fd53	-0.05932362
204	0xbcc32f26	-0.023826193
205	0x3d683db6	0.056699477
206	0xbccc32b0	-0.024926513
207	0x3de469cb	0.11152991
208	0x3d6ced0c	0.057843253
209	0x3d35febb	0.044432383
210	0xbaf9db7b	-0.0019062603
211	0x3c2abe92	0.010421412
212	0x3c43af56	0.011943659
213	0xbd2ff9a7	-0.042962696
214	0xbca82a30	-0.020527929
215	0x3c35b6bd	0.0110909315
216	0xbdb352cd	-0.08756027
217	0xbd7bc951	-0.061471287
218	0x3d92f440	0.07175493
219	0xbe02d974	-0.12778264
220	0xbca59ca3	-0.020216292
221	0x3dc601de	0.09668325
222	0x3d317329	0.043322716
223	0xbca0474f	-0.019565253
224	0xbe07a68d	-0.13247128
225	0x3d730e2c	0.059339687
226	0xbdb9af55	-0.09066645
227	0xbce127a7	-0.027484728
228	0xbd1cbf59	-0.03826842
229	0xbc60f0b6	-0.013729265
230	0x3bbd495e	0.0057765683
231	0x3dc5bed2	0.09655537
232	0x3b714c78	0.003681926
233	0x3dd81b95	0.10552136
234	0x3d9be9f4	0.076129824
235	0xbd846a64	-0.06465605
236	0x3d54c578	0.051946133
237	0xbdbed7ca	-0.09318502
238	0xbd82793e	-0.06370781
239	0x3c8ee832	0.017444704
240	0x3cf1910e	0.029488113
241	0x3daffd81	0.08593274
242	0xbd6ac995	-0.05732115
243	0xbd1d8817	-0.038459864
244	0x3cd7d87c	0.026348345
245	0xbdeeaf7a	-0.11654563
246	0x3dbee91f	0.09321808
247	0xbdde78f1	-0.108629115
248	0xbcb72fa0	-0.022361577
249	0xbd2c94fa	-0.042134263
250	0xbd814433	-0.06311836
251	0x3bdc2164	0.0067178477
252	0x3d8bb85e	0.068222746
253	0xbd3998fb	-0.04531191
254	0xbd7a6a0c	-0.06113629
255	0xbd2141ff	-0.03936958

conv1.bias f4 [16]
0	0x3d699f28	0.05703655
1	0x3de90b3e	0.113790974
2	0x3df8f3c0	0.121558666
3	0xbdbd1543	-0.09232571
4	0xbdafb6e4	-0.085798055
5	0xbd1c4e8f	-0.038160857
6	0xbd4b65af	-0.04965752
7	0x3df59491	0.119912274
8	0xbcb9e31c	-0.022691302
9	0xbd9ad09a	-0.07559319
10	0xbd478fbc	-0.04872106
11	0xbd80e533	-0.06293716
12	0x3d373530	0.044728458
13	0xbdd6daf6	-0.10490982
14	0xbddcd917	-0.10783594
15	0xbdf7228f	-0.120671384

bn1.weight f4 [16]
0	0x3f81aeae	1.0131433
1	0x3f7ee1de	0.99563396
2	0x3f826348	1.0186548
3	0x3f82a64b	1.0206999
4	0x3f80c271	1.0059339
5	0x3f790c2a	0.97284186
6	0x3f7dd4d5	0.9915288
7	0x3f7fb0eb	0.9987933
8	0x3f7e9254	0.9944203
9	0x3f81fd11	1.0155355
10	0x3f79aea6	0.9753212
11	0x3f834c47	1.0257653
12	0x3f7ac1d4	0.9795201
13	0x3f7bf85f	0.9842586
14	0x3f788e4f	0.97092146
15	0x3f84922c	1.0357108

bn1.bias f4 [16]
0	0x3b59d724	0.0033239806
1	0x3bfeed78	0.0077797733
2	0x3b469985	0.0030303907
3	0x3c88bfec	0.016693078
4	0xbd1ad501	-0.037800793
5	0xbcf4dcc9	-0.029890435
6	0xbd14e058	-0.036346763
7	0x3bd09914	0.0063659046
8	0x3adee7b0	0.0017006304
9	0xbc98ae34	-0.018637754
10	0xbcb973e4	-0.022638269
11	0xbcf3402a	-0.029693682
12	0xbab8e5b9	-0.0014106549
13	0xbcf34396	-0.029695313
14	0xbd221214	-0.039568022
15	0x3cca4f83	0.024696117

bn1.running_mean f4 [16]
0	0xbd185e7f	-0.037199493
1	0x3de55858	0.11198491
2	0xbdb6ffd3	-0.08935513
3	0xbe28d0f1	-0.16485955
4	0xbd917934	-0.07103196
5	0x3f06708f	0.525155
6	0xbd8fb117	-0.07016199
7	0x3e74e8a7	0.23916875
8	0xbd02ec8c	-0.03196387
9	0x3c02f905	0.007993941
10	0x3e749bf5	0.23887618
11	0xbc388712	-0.011262672
12	0x3e9cd9ae	0.30634826
13	0xbdb90a03	-0.09035113
14	0xbcd819ae	-0.026379433
15	0xbea75baa	-0.32687122

bn1.running_var f4 [16]
0	0x3c829e44	0.015944608
1	0x3be7be27	0.0070722285
2	0x3c4f2144	0.0126422085
3	0x3b917993	0.0044395416
4	0x3bbfacb0	0.0058494434
5	0x3d99c0ce	0.07507478
6	0x3bab4d19	0.0052276966
7	0x3c362f12	0.011119621
8	0x3bbc9c2c	0.005755922
9	0x3ba97204	0.0051710624
10	0x3c712e0f	0.014720454
11	0x3b2de846	0.002653615
12	0x3c841fcd	0.016128445
13	0x3bf967a7	0.0076112333
14	0x3ce08c1c	0.02741056
15	0x3cd22d7f	0.02565646

conv2.weight f4 [32, 16, 5, 5]
0	0x3ca705de	0.02038854
1	0x3cb4659a	0.022021104
2	0xbc55baf0	-0.013045058
3	0x3c87087f	0.016483543
4	0x3d423f80	0.04742384
5	0x3c5d0bd3	0.013491589
6	0xbcbc9cbe	-0.02302396
7	0xbc89fef0	-0.016845196
8	0x3b605d9b	0.003423548
9	0x3d042ed1	0.03227121
10	0xbcde077f	-0.027103184
11	0x3cad09f9	0.02112292
12	0x3cec5953	0.028851187
13	0xbc74f5ca	-0.014951179
14	0x3d16b9c6	0.03679826
15	0x3d5fa275	0.05459829
16	0xbc193d0f	-0.009352936
17	0x3c4a7e83	0.012359264
18	0x3d4d4129	0.05011097
19	0xbd05f9de	-0.032708995
20	0x3c7f445f	0.015580266
21	0x3cc2a4c7	0.023760213
22	0x3c75859d	0.014985469
23	0xbd43d79d	-0.047813047
24	0xbd0a7a0d	-0.033807803
25	0x3ce7020d	0.02819922
26	0x3ba02d7e	0.0048882356
27	0xbd478f38	-0.04872057
28	0xbcfc2e8d	-0.030783916
29	0xbd2f522c	-0.042802975
30	0xbc648fae	-0.0139502715
31	0xbb3285ef	-0.0027240475
32	0x3cf6d170	0.030129164
33	0xbce18e17	-0.027533574
34	0x3c210288	0.009827264
35	0x3d79df2e	0.061003856
36	0x3d0bfa9c	0.034174547
37	0xbd87b43d	-0.066261746
38	0x3cf1785b	0.029476335
39	0x3ca17848	0.019710675
40	0x3d2f8a76	0.042856656
41	0xbd62f875	-0.05541273
42	0x3d043a0e	0.032281928
43	0x3d4d4b9d	0.05012094
44	0xbd048815	-0.03235634
45	0xbb7988c9	-0.0038075915
46	0x3da300b6	0.0795912
47	0xbc5b6e09	-0.013392934
48	0x3c80201d	0.015640313
49	0x3c95254c	0.018206261
50	0x3c6864fd	0.014184234
51	0x3cb1d269	0.021706777
52	0x3c53d66c	0.01292954
53	0x3ceb8e57	0.028754396
54	0x3c319400	0.010838509
55	0x3d3e509f	0.046463605
56	0xbd05b876	-0.03264662
57	0xbd253e8b	-0.04034285
58	0x3c9a447b	0.018831482
59	0xbca1f6be	-0.019770976
60	0x3d6c30d8	0.05766377
61	0x3d48541a	0.04890833
62	0x3ce12385	0.027482757
63	0x3cc4f86a	0.024044234
64	0xbce10677	-0.027468903
65	0xbae9c8b8	-0.0017836308
66	0xbc4889e6	-0.012239909
67	0xbc3aa844	-0.011392657
68	0x3ce295f4	0.027659394
69	0x3c3c33c4	0.011486951
70	0xbbcb4b39	-0.0062040356
71	0x3d055a91	0.032557074
72	0xbc19a7d6	-0.009378394
73	0xbc9677f0	-0.018367738
74	0x3d6cc279	0.05780265
75	0x3d3da60a	0.046300925
76	0xbc0ead56	-0.008708319
77	0xbd1ec423	-0.03876127
78	0xbd77484d	-0.060371686
79	0xbda6f450	-0.08152068
80	0x3d32b78d	0.04363208
81	0x3c4b75af	0.012418195
82	0x3d595613	0.053060602
83	0xbd82b322	-0.06381823
84	0xbd1498fe	-0.036278717
85	0xbcf42e96	-0.02980737
86	0x3cdac2b5	0.026704172
87	0x3cd1366c	0.025538646
88	0x3d3a7c9e	0.045529
89	0x3c9270ba	0.017876018
90	0xbb382b71	-0.0028102065
91	0xbd734cb5	-0.059399325
92	0xbd39e368	-0.045382887
93	0xb93332b1	-0.00017089654
94	0x3cc45f62	0.023971263
95	0xbcea2eff	-0.028586863
96	0x3c4fa559	0.012673699
97	0xbc88b135	-0.016686061
98	0x3d449d35	0.048001487
99	0x3d09b1d1	0.033616845
100	0xbd603171	-0.05473465
101	0xbd3402d7	-0.04394802
102	0x3d39dac5	0.04537465
103	0x3b19ce3f	0.002346888
104	0xbd35d906	-0.044396423
105	0x3c6c8a21	0.014437229
106	0x3c59928b	0.0132795675
107	0xbca110db	-0.019661358
108	0xbdac6ae9	-0.08418829
109	0x3c7e902d	0.015537304
110	0xbb62520a	-0.0034533762
111	0xba838fef	-0.0010037402
112	0x3c3a7d1a	0.011382366
113	0xbc7d1466	-0.015446758
114	0xbd0921a6	-0.033479355
115	0xbd9ba4aa	-0.075997666
116	0x3cf09a77	0.02937053
117	0x3cbbed28	0.022940233
118	0xbc004a45	-0.007830207
119	0x3c079244	0.008274619
120	0x3ca5d25a	0.020241905
121	0xbca65b27	-0.020307137
122	0x3d427c63	0.047481906
123	0x3d1105fe	0.035406105
124	0xbcd4a9a4	-0.025959797
125	0xbbddcfef	-0.0067691724
126	0xbcc531d0	-0.024071604
127	0x3c4ed4d1	0.012623982
128	0xbd422556	-0.047398888
129	0xbd031b33	-0.03200836
130	0x3d24108b	0.04005484
131	0xbd38fd6f	-0.045163568
132	0xbc7d698a	-0.015467057
133	0x3cf3ae46	0.029746186
134	0xbd204fc1	-0.03913856
135	0x3d8a22ee	0.067449436
136	0x3d6b0960	0.057381988
137	0x3d27b7ca	0.04094676
138	0xbba62f27	-0.005071539
139	0x3c9a457b	0.018831959
140	0xbca9f959	-0.020748781
141	0xbcd68052	-0.026184235
142	0xbb22ea9b	-0.0024859074
143	0xbc560596	-0.013062855
144	0x3c2306f4	0.009950388
145	0x3ce64da1	0.028113188
146	0xbd0affaf	-0.033935245
147	0x3cbc99c5	0.023022542
148	0x3c4c5127	0.01247052
149	0x3cece977	0.028919918
150	0x3d012f17	0.03153905
151	0xbaadcdce	-0.0013260187
152	0xbcec4511	-0.028841527
153	0x3c41e874	0.011835206
154	0xbc8cff8b	-0.017211696
155	0x3c990b93	0.018682277
156	0xbd0f0d49	-0.03492478
157	0xbc6f1135	-0.014591505
158	0x3b5630fb	0.0032683003
159	0xbc67a751	-0.014139012
160	0x3c808ca0	0.015692055
161	0x3cc9b788	0.024623647
162	0xbcd6e673	-0.026232934
163	0xbb5ffc73	-0.003417757
164	0x3ceb8011	0.02874759
165	0x3aaa9f58	0.0013017459
166	0x3cec2825	0.028827736
167	0xbcb3b83e	-0.02193844
168	0x3d2f1f1c	0.042754278
169	0xbbef1e4e	-0.007297314
170	0x3c69ab50	0.0142620355
171	0xbd249a3f	-0.040186163
172	0xbd4b3262	-0.049608596
173	0x3d328215	0.043581087
174	0xbb95d587	-0.0045725736
175	0x3d94ddd1	0.072688706
176	0x3d3abced	0.04559033
177	0x3d408f2b	0.047011536
178	0x3d200f80	0.039077282
179	0xbd124015	-0.035705645
180	0x3d15b765	0.03655185
181	0xbd31a808	-0.043373138
182	0x3c39186b	0.011297326
183	0xbd07444a	-0.03302411
184	0x3c146aa7	0.009058631
185	0xbce63b46	-0.028104436
186	0xbcd8e489	-0.026476162
187	0xbbb0bfa5	-0.0053939396
188	0x3c321559	0.0108693475
189	0x3c3cbe1c	0.011519935
190	0x3d624ef5	0.05525108
191	0x3b085ee6	0.0020808517
192	0x3c7ffea1	0.015624673
193	0xbc3c1e46	-0.011481827
194	0x3cb8e669	0.022570806
195	0x3c94f569	0.018183427
196	0x3d0a386f	0.033745226
197	0x3d54ebd0	0.0519827
198	0x3c8c660c	0.017138503
199	0xbc21384c	-0.009840082
200	0x3b5bdd55	0.0033548672
201	0xbd7c4db8	-0.061597556
202	0xbc87fb72	-0.01659939
203	0x3d4d528f	0.050127562
204	0x3c44e5c4	0.012017671
205	0xbd6f7095	-0.058456976
206	0xbd5db57a	-0.054128148
207	0xbd49c927	-0.0492641
208	0xbcece575	-0.028918007
209	0x3ad3befb	0.0016154939
210	0x3d1138b2	0.03545446
211	0x3c56d5b3	0.013112473
212	0xbd35dd43	-0.044400465
213	0xbd6f02b6	-0.058352195
214	0xbd3bf848	-0.045891076
215	0xbcff4d19	-0.031164693
216	0x3b90b413	0.004415998
217	0xbcf021b2	-0.029312942
218	0xbd067dc1	-0.032834772
219	0xbd1f7135	-0.038926322
220	0xbc97f4c1	-0.018549325
221	0xbcfc40f6	-0.030792695
222	0xbcea9c8c	-0.0286391
223	0x3ccbae83	0.024863487
224	0xba0d36d3	-0.00053868926
225	0xbcbc1251	-0.022957953
226	0x3b9560a6	0.0045586405
227	0xbd46b070	-0.048508108
228	0xbc940289	-0.018067615
229	0xbc00ba73	-0.007856953
230	0xbbde9972	-0.0067931945
231	0xbcb46998	-0.022023007
232	0x3b75e147	0.003751831
233	0xbd577f74	-0.052611783
234	0x3ca798ab	0.02045854
235	0x3bd46db2	0.0064828033
236	0x3c173ec3	0.009231272
237	0xbd1a3739	-0.03765032
238	0xbcf48d75	-0.029852608
239	0xbd63b16c	-0.055589125
240	0xbb670aff	-0.0035254357
241	0x3cda0ae7	0.026616527
242	0xbc9588f3	-0.018253779
243	0x3b20ca7a	0.0024534748
244	0xbd0a257d	-0.033727158
245	0x3c433c70	0.011916265
246	0x3c4580cb	0.012054632
247	0xbdab6380	-0.083685875
248	0xbc64f109	-0.013973483
249	0xbd3fac2f	-0.046795066
250	0xbc101a79	-0.008795374
251	0x3c044619	0.008073353
252	0x3d039449	0.032123838
253	0xbd2cf511	-0.0422259
254	0xbc1aa460	-0.009438604
255	0xbc491e36	-0.012275269

conv2.bias f4 [32]
0	0xbd0add75	-0.033902604
1	0x3a39e5c0	0.00070914254
2	0xbcf04a5a	-0.029332329
3	0x3cae3311	0.021264585
4	0x3c68e31d	0.014214304
5	0xbc47639d	-0.012169746
6	0x3cc6b3cd	0.024255658
7	0x3ce02573	0.027361607
8	0xbbd79a82	-0.006579698
9	0x3b1f147c	0.0024273684
10	0x3cd556e5	0.026042411
11	0xbd2a629d	-0.04159795
12	0x3ba895a7	0.005144793
13	0x3bd90dda	0.0066239657
14	0xbc098634	-0.008393813
15	0xbbb492de	-0.005510672
16	0xbcc757e8	-0.02433391
17	0x3c6085a5	0.013703738
18	0xbd0cad88	-0.03434518
19	0x3c86b393	0.01644305
20	0xbd0d7223	-0.034532677
21	0x3c8557d7	0.016277237
22	0x3c239370	0.009983882
23	0xbcb74b28	-0.022374704
24	0xbc61da17	-0.013784907
25	0xbcb40bb2	-0.021978233
26	0xbd09ce17	-0.03364381
27	0xbccbf5eb	-0.024897536
28	0xbc5b7158	-0.0133937225
29	0x3d10c02f	0.03533953
30	0xbac08839	-0.0014689035
31	0x3d2842a0	0.041079164

bn2.weight f4 [32]
0	0x3f783dfe	0.9696959
1	0x3f8146e5	1.009976
2	0x3f82c9c5	1.0217825
3	0x3f823929	1.0173694
4	0x3f76b5da	0.96371233
5	0x3f8106ff	1.008026
6	0x3f7c2eaa	0.98508704
7	0x3f82c1de	1.0215414
8	0x3f7b0c22	0.9806539
9	0x3f816358	1.0108442
10	0x3f7bba3d	0.9833105
11	0x3f7cf9c2	0.988186
12	0x3f8294bd	1.0201641
13	0x3f831069	1.0239383
14	0x3f803974	1.0017533
15	0x3f7f01a9	0.9961191
16	0x3f8181a6	1.011769
17	0x3f81000f	1.0078143
18	0x3f7ba14e	0.98293006
19	0x3f80e18a	1.0068829
20	0x3f82ac91	1.0208913
21	0x3f85aee2	1.0443995
22	0x3f83b55d	1.0289723
23	0x3f7fb94a	0.99892104
24	0x3f8104a5	1.0079542
25	0x3f7a5056	0.9777883
26	0x3f80a91a	1.0051606
27	0x3f749130	0.9553404
28	0x3f80987b	1.0046533
29	0x3f7caf24	0.98704743
30	0x3f77ae34	0.9675019
31	0x3f80dec4	1.0067983

bn2.bias f4 [32]
0	0xbcbd08b4	-0.023075439
1	0xb9752021	-0.0002337699
2	0xba5c1ddf	-0.0008396785
3	0xbcd1e573	-0.025622105
4	0xbd4d6389	-0.050143752
5	0xbc8ba671	-0.017047139
6	0xbca23f24	-0.019805498
7	0x3c8b313d	0.016991252
8	0xbc3ae32b	-0.0114067
9	0xbc3f9f7e	-0.011695741
10	0xbd5c0ce1	-0.05372322
11	0xbbeae9b3	-0.0071689724
12	0xbc508157	-0.0127261495
13	0x3c0d2699	0.008615159
14	0xbc0bd293	-0.0085340915
15	0xbc61d051	-0.013782577
16	0xbc5c38b6	-0.013441255
17	0x3c0a8bce	0.008456184
18	0xbcc4fe64	-0.024047084
19	0x3b946a3b	0.004529265
20	0xbc56425c	-0.013077345
21	0xb7ef7784	-2.8546674e-05
22	0x3af3aa01	0.0018590094
23	0xbc11216e	-0.008858068
24	0xbd04827c	-0.032351002
25	0xbc68ec27	-0.014216459
26	0xbd24e79c	-0.040259942
27	0xbd75602b	-0.059906166
28	0x3c0251ac	0.007954042
29	0xbcb8bb1d	-0.02255016
30	0xbc9c7afb	-0.01910161
31	0xbb8065fe	-0.0039184084

bn2.running_mean f4 [32]
0	0xbec5973f	-0.38591954
1	0xbe03db7e	-0.12876698
2	0xbf09faef	-0.5389852
3	0xbf08aac6	-0.5338558
4	0x3d23a3fd	0.039951313
5	0xbe8e2bfa	-0.27767926
6	0x3e37beb1	0.17943837
7	0x3c5b9fc6	0.013404792
8	0xbf0062b6	-0.5015062
9	0x3e413a7c	0.18869966
10	0xb9d13295	-0.00039901273
11	0x3e14b914	0.14523727
12	0x3e28a773	0.16470127
13	0x388ee96d	6.8145666e-05
14	0x3d9539bf	0.07286405
15	0xbc543aee	-0.012953503
16	0xbf10a6f8	-0.56504774
17	0xbef75387	-0.48305914
18	0x3ee36a61	0.44417098
19	0x3dbb313b	0.09140249
20	0xbea97f32	-0.33104855
21	0xbe01a385	-0.12660034
22	0xbe549492	-0.207598
23	0xbde56acc	-0.112020105
24	0xbc9899f5	-0.0186281
25	0xbddabb08	-0.10680205
26	0x3c2fd0a3	0.010730895
27	0xbded9cc8	-0.11602169
28	0xbbc73ab6	-0.006079997
29	0xbed650f4	-0.41858637
30	0x3f6c0ca5	0.92206794
31	0xbead2051	-0.33813718

bn2.running_var f4 [32]
0	0x3ea82dfe	0.3284759
1	0x3e41ab46	0.18912992
2	0x3e373b60	0.17893744
3	0x3e4cf000	0.20013428
4	0x3e497dc9	0.1967689
5	0x3e5dac02	0.21647647
6	0x3e3218d2	0.1739228
7	0x3de49264	0.11160734
8	0x3e889fc4	0.26684391
9	0x3df9a3c0	0.12189436
10	0x3e40a86f	0.18814252
11	0x3e910fc2	0.28332335
12	0x3e6e2893	0.23257665
13	0x3e1bd1d5	0.15216763
14	0x3e26651e	0.1624951
15	0x3e09ada0	0.13445139
16	0x3e00b89e	0.12570426
17	0x3e388cc1	0.18022443
18	0x3e7148b5	0.23562892
19	0x3e4320d9	0.19055499
20	0x3e0ea0af	0.13928483
21	0x3e0970f2	0.13421991
22	0x3e179dae	0.14806244
23	0x3e2e5ae3	0.17026858
24	0x3e09517e	0.13409993
25	0x3e21d584	0.15804106
26	0x3e758fb0	0.23980594
27	0x3e8a514c	0.2701515
28	0x3e2a26b8	0.16616333
29	0x3e668a5f	0.22513722
30	0x3e9e54a8	0.30923963
31	0x3e7763a3	0.24159102

conv3.weight f4 [32, 32, 5, 5]
0	0x3b2bd420	0.0026218966
1	0xbcb53be5	-0.022123287
2	0xbb73f263	-0.0037223331
3	0x3d38affa	0.0450897
4	0xbd125719	-0.035727594
5	0x3cc0ea2d	0.023549164
6	0xbcb528fc	-0.02211427
7	0x3d2616f9	0.040549252
8	0xbcf2c138	-0.02963315
9	0xbc7295dd	-0.014806238
10	0xbcb01ea8	-0.021498993
11	0xbc48ea62	-0.0122629125
12	0xbd2a5c33	-0.041591834
13	0x3c8078a5	0.015682528
14	0x3d05002e	0.032470874
15	0xbba4c990	-0.005028911
16	0x3cd6573a	0.02616464
17	0x3c05c3b2	0.008164333
18	0x3cc0c8a6	0.023533177
19	0xbccca0f9	-0.024979101
20	0xbcfe3035	-0.031028846
21	0xbc99aea6	-0.018760037
22	0x3c691db7	0.014228276
23	0x3d52d53d	0.05147289
24	0x3d1018f6	0.035180055
25	0x3b5a1360	0.0033275709
26	0x3d144f35	0.03620835
27	0xbb6ce503	-0.0036147244
28	0xbce43293	-0.027856147
29	0x3d07f282	0.033190258
30	0x3c7a3492	0.015271323
31	0x3c38cf7e	0.011279939
32	0x3ccaa780	0.024738073
33	0x3b8f815d	0.004379435
34	0xbc8ddadc	-0.017316274
35	0x3d0b3e0d	0.033994723
36	0x3d06462c	0.032781765
37	0xbc0b0e02	-0.008487226
38	0x3d241a59	0.04006419
39	0x3c051243	0.00812203
40	0x3c042ac2	0.008066835
41	0xbc777f41	-0.015106023
42	0x3d04cb62	0.032420523
43	0x3c2e08ad	0.010622186
44	0x3cb86fc5	0.022514233
45	0xbccd7819	-0.025081681
46	0xbd2bb832	-0.04192371
47	0x3d39eee3	0.045393836
48	0x3c4ea485	0.012612467
49	0x3ca25281	0.019814732
50	0x3b88b6c6	0.004172179
51	0xbc971055	-0.018440405
52	0xbb3def13	-0.002898161
53	0x3c84b0e0	0.016197622
54	0xbd0df080	-0.034653187
55	0xba2b7cdd	-0.00065417384
56	0x3cbfd3e2	0.023416463
57	0xbcb952d9	-0.022622513
58	0xbb6b9983	-0.0035949654
59	0xbc84c2d8	-0.01620619
60	0xbc407778	-0.011747234
61	0xbcbf5108	-0.023354068
62	0x3c4cc04a	0.012497017
63	0xbcebbb72	-0.028775904
64	0x3c2ad773	0.010427344
65	0x3cb99549	0.022654193
66	0xbb894dab	-0.004190167
67	0xbd0ae8a2	-0.033913262
68	0xbd14ed7d	-0.0363593
69	0xbd0c625c	-0.03427349
70	0x3ca2fbc8	0.01989545
71	0xbcf0ccf6	-0.029394608
72	0x3cc74e78	0.024329409
73	0x3d194b46	0.037425302
74	0xbc2c5312	-0.010517852
75	0xbd03dcad	-0.032192875
76	0xbab5dd34	-0.0013875128
77	0x3d17d8fa	0.03707216
78	0xbd0482c5	-0.032351274
79	0x3c902fad	0.017600859
80	0x3d451b3a	0.04812167
81	0x3cdd59ae	0.027020302
82	0x3c4bbf0b	0.012435685
83	0xbc7fa737	-0.015603832
84	0xbcc0b913	-0.02352575
85	0x3d6aca4d	0.057321835
86	0x3cd99d96	0.0265644
87	0xbcac5fcd	-0.021041775
88	0xbce06c7e	-0.027395483
89	0xbc89fa4f	-0.01684299
90	0x3c7753e1	0.015095682
91	0x3d69fbef	0.05712503
92	0x3d1557d2	0.036460705
93	0x3c80a12c	0.015701853
94	0x3a09ca4a	0.00052562787
95	0x3d6312cc	0.055437848
96	0x3adb66fe	0.0016739068
97	0xbc933aec	-0.017972432
98	0x3d0aaa09	0.033853564
99	0x3ceabcae	0.028654423
100	0xbca5b006	-0.020225536
101	0x3c5cf56f	0.01348625
102	0x3cb80264	0.022462077
103	0x3ca0b554	0.019617714
104	0xbc9fd487	-0.01951052
105	0x3caff12f	0.02147731
106	0xbd0f4218	-0.03497514
107	0x3ce5ae23	0.028037136
108	0xbc4946a2	-0.012284907
109	0xbd0bd348	-0.03413704
110	0xbb5dee25	-0.003386387
111	0x3cfc234c	0.03077855
112	0xbbc19b95	-0.0059084394
113	0x3c676cca	0.014125058
114	0xbcfaaad4	-0.030599035
115	0x3ce05770	0.027385443
116	0xbceef996	-0.029171746
117	0xbd15068b	-0.036383193
118	0x3cbb7911	0.022884877
119	0xbc419396	-0.011814972
120	0xbd1644ea	-0.036686815
121	0x3c8fbdd4	0.017546572
122	0x3c8dcc19	0.017309235
123	0x3c9dde31	0.019270988
124	0x3c8dab37	0.017293556
125	0x3cc6fbdf	0.024290023
126	0xbd022be2	-0.03178013
127	0x3c0a9f8f	0.008460893
128	0x3c162ae8	0.009165503
129	0xbb37f62d	-0.0028070316
130	0x3a8c84a7	0.0010720686
131	0xbb97a7f7	-0.0046281773
132	0xbd2e6c42	-0.04258371
133	0x3c99ada4	0.018759556
134	0x3d2bb3fb	0.04191969
135	0xbc89360a	-0.0167494
136	0x3c8fecf5	0.017569045
137	0x3ca6e2ba	0.020371784
138	0xbae9b209	-0.0017829548
139	0x3c65561f	0.013997584
140	0x3cc42501	0.023943426
141	0x3d382f81	0.04496718
142	0x3c681138	0.0141642615
143	0xbb9479c9	-0.0045311195
144	0xbbf95db2	-0.0076100463
145	0x3d1aed6b	0.037824076
146	0xbd352543	-0.04422499
147	0x3d2210e5	0.039566893
148	0x3b6c952f	0.0036099663
149	0x3be99991	0.0071289022
150	0x3c533fa8	0.012893595
151	0x3d02ef6b	0.031966608
152	0xbd731d26	-0.05935397
153	0x3b6ff4bf	0.0036614386
154	0x3b4104cb	0.002945232
155	0xbc34c553	-0.011033374
156	0xbabe67e7	-0.0014526815
157	0x3caecf40	0.021339059
158	0x3ce08506	0.02740718
159	0xbbbca936	-0.005757476
160	0x3c354520	0.011063844
161	0xbd18964b	-0.037252706
162	0x3c498e8c	0.012302052
163	0xb9ea83d1	-0.0004473017
164	0x3c3c6f6b	0.0115011735
165	0x3c7a026a	0.015259365
166	0x3c928206	0.017884266
167	0xbcc61daf	-0.024184076
168	0x3ceef0ac	0.029167496
169	0xba64f9bb	-0.00087347225
170	0x3c70148f	0.014653339
171	0x3c8b8635	0.017031768
172	0x3c975469	0.018472867
173	0xbd68895d	-0.056771625
174	0xbcff1282	-0.031136755
175	0xbcded454	-0.027200855
176	0xbcc7d030	-0.024391264
177	0x3ce4ed6f	0.027945248
178	0xbc870e04	-0.016486175
179	0x3c0dff3f	0.008666812
180	0x3b87b8ed	0.004141918
181	0x3ba86dd5	0.005140046
182	0x3b542973	0.0032373338
183	0xbbdc4101	-0.0067216163
184	0x3cda416e	0.026642527
185	0xbd5954c0	-0.05305934
186	0x3cb2d3af	0.021829454
187	0xb701cf0b	-7.737205e-06
188	0x3ce36e85	0.02776266
189	0xbbe0371c	-0.006842507
190	0xbc4929c3	-0.012278023
191	0x3ce158e5	0.027508209
192	0xbc79cbb6	-0.015246322
193	0xbc1bb856	-0.009504398
194	0xbbf05bad	-0.0073351474
195	0x3c9e7be9	0.019346194
196	0xbc880815	-0.016605416
197	0xbbe44c9a	-0.0069671394
198	0x3d23a256	0.039949737
199	0x3c065bea	0.008200625
200	0x3b747c3e	0.00373055
201	0x3c1e0a7f	0.009646057
202	0x3b595c39	0.0033166541
203	0x3d25dabe	0.040491812
204	0xbd19a4d0	-0.037510693
205	0x3cad46c4	0.021151908
206	0xbd739c02	-0.059474953
207	0xbc36cfa7	-0.011157907
208	0x3cf0af5f	0.029380498
209	0xbc7c3071	-0.015392409
210	0x3b420a30	0.0029608123
211	0x3c28aeac	0.010295551
212	0xbcba68a5	-0.022754977
213	0xbbaff094	-0.0053692553
214	0x3bf018c8	0.007327173
215	0x3c8ba9df	0.017048774
216	0xbc0db7da	-0.008649791
217	0xbb07f81c	-0.002074725
218	0xbbda343b	-0.0066590584
219	0x3d209a57	0.03920969
220	0xbd0753ab	-0.033038776
221	0xbc734dc3	-0.014850083
222	0xbc9abed0	-0.018889815
223	0x3d1115a1	0.035421018
224	0xbc129b85	-0.008948212
225	0x3d8a5096	0.06753652
226	0x3d119399	0.03554115
227	0xbcee054b	-0.029055258
228	0xbc0324ab	-0.008004348
229	0x3c7fbc35	0.015608837
230	0xbcd6c897	-0.026218696
231	0x3d3d5bc5	0.046230096
232	0x3c25f424	0.010129008
233	0xbaa214d3	-0.0012365825
234	0x3ccc431c	0.024934344
235	0xbd433105	-0.04765417
236	0x3d00e1a9	0.031465206
237	0x3ceb1000	0.028694153
238	0xbbd056b1	-0.0063579907
239	0x3d313730	0.04326552
240	0xbb19c991	-0.002346609
241	0x3c30ced5	0.0107915
242	0xbd5de7aa	-0.05417601
243	0x3d655c40	0.05599618
244	0x3c6fff47	0.014648265
245	0x3cd105e9	0.025515513
246	0x3b94f63e	0.004545956
247	0xbbda77b1	-0.0066671004
248	0x3b14fc6e	0.0022733468
249	0x3ccebc9d	0.025236422
250	0x3c9bca0c	0.019017242
251	0xbce93173	-0.028465962
252	0xb782b906	-1.5583366e-05
253	0x3be386bf	0.006943553
254	0x3c3c59b0	0.011495993
255	0xbbfdbc12	-0.007743367

conv3.bias f4 [32]
0	0x3d11c8ef	0.035592016
1	0x3cf10c7e	0.029424902
2	0xbd02c9f7	-0.03193089
3	0xbd15ab1d	-0.03654014
4	0x3cd84fc1	0.026405217
5	0x3c64611d	0.013939169
6	0x3c26586a	0.0101529155
7	0xbc24f779	-0.010068768
8	0xbcbd12db	-0.02308028
9	0xbcdfefba	-0.02733599
10	0xbcb5c863	-0.022190278
11	0xbc50fafa	-0.01275515
12	0x3c9f7992	0.019467149
13	0xbcf44981	-0.029820206
14	0x3d0e61cd	0.03476124
15	0x3d09893b	0.03357814
16	0x3d0098b7	0.03139564
17	0x3bf2c2d5	0.0074084797
18	0x3cad49fe	0.021153446
19	0x3c8112a5	0.01575596
20	0xbbbfbc53	-0.0058513074
21	0xbb182257	-0.0023213828
22	0xbc95b126	-0.018272948
23	0x3d02d335	0.031939704
24	0x3cbf0ba3	0.023320979
25	0x3d02d194	0.03193815
26	0x3b4b6e49	0.0031041077
27	0x3c9d1be2	0.019178335
28	0xbca33e79	-0.01992725
29	0xbcbb4b0f	-0.02286294
30	0x3c1227e2	0.008920642
31	0x3bda656b	0.006664922

bn3.weight f4 [32]
0	0x3f8463a8	1.0342913
1	0x3f8252d4	1.0181527
2	0x3f82f702	1.0231631
3	0x3f80b11a	1.0054047
4	0x3f800d3e	1.0004041
5	0x3f8045cd	1.0021302
6	0x3f80adaa	1.0052998
7	0x3f82d676	1.0221698
8	0x3f8309a8	1.0237322
9	0x3f82476d	1.0178047
10	0x3f82c63f	1.021675
11	0x3f7c6040	0.98584366
12	0x3f82f82b	1.0231985
13	0x3f812932	1.0090697
14	0x3f80e35f	1.0069388
15	0x3f824e59	1.018016
16	0x3f816421	1.0108682
17	0x3f8066ef	1.0031413
18	0x3f7e28ac	0.9928081
19	0x3f81d158	1.0142012
20	0x3f805ab8	1.0027685
21	0x3f804032	1.0019591
22	0x3f819720	1.0124245
23	0x3f841546	1.0318992
24	0x3f83d58d	1.0299546
25	0x3f826c82	1.0189364
26	0x3f8700a8	1.0547075
27	0x3f838586	1.0275123
28	0x3f825d2e	1.0184686
29	0x3f8193da	1.0123246
30	0x3f852a5f	1.0403556
31	0x3f829763	1.020245

bn3.bias f4 [32]
0	0x3bf83bf3	0.007575506
1	0x3d000b66	0.03126087
2	0xb910a673	-0.00013794917
3	0xbb44bf29	-0.0030021167
4	0xbc910707	-0.017703546
5	0xbac69979	-0.001515194
6	0x3c0e222e	0.008675141
7	0x3caa814f	0.020813612
8	0x3c08a2cd	0.008339596
9	0xbaa4ac52	-0.0012563562
10	0x3c397994	0.01132049
11	0xbc99268e	-0.018695142
12	0x3afc1c5b	0.0019234525
13	0x3c9e42fa	0.019319046
14	0xbb02fc05	-0.001998664
15	0x3c6e2afc	0.014536615
16	0xbb53e8e3	-0.0032334856
17	0x3c039076	0.008030048
18	0xbc285077	-0.010273091
19	0xbbea332c	-0.0071472134
20	0x3ac0cf1f	0.0014710164
21	0xbbe66b90	-0.0070318654
22	0xbb3db6cc	-0.0028948067
23	0x3c6c6db7	0.014430455
24	0x3bfa91b3	0.007646763
25	0x3c81beb8	0.015838012
26	0x3cd22408	0.025651947
27	0x3d038655	0.03211053
28	0x3ce5b6f7	0.028041346
29	0x3c020ef1	0.007938133
30	0x3c7f6b20	0.015589505
31	0x3c8730b1	0.01650271

bn3.running_mean f4 [32]
0	0x3f058c9c	0.5216768
1	0xbf0a222d	-0.539584
2	0xbea06f4f	-0.31334922
3	0xbf16a620	-0.58847237
4	0xbd3ca631	-0.04605693
5	0xbe0bd3aa	-0.13654962
6	0xbf1b6c8d	-0.6071251
7	0x3e8381c4	0.2568494
8	0xbf7351a9	-0.9504648
9	0xbea6121f	-0.324357
10	0xbf04846e	-0.5176457
11	0xbf31fb8a	-0.69524443
12	0x3e31bc6a	0.1735703
13	0xbf506b32	-0.8141357
14	0xbe6dd36d	-0.23225184
15	0x3e29dd4a	0.16588321
16	0xbe15313a	-0.1456956
17	0x3edb8a1b	0.42878804
18	0xbef1287b	-0.47101197
19	0xbe8d93f4	-0.27651942
20	0xbe7fa365	-0.24964674
21	0xbe8a4f47	-0.2701361
22	0xbf674616	-0.9034132
23	0xbecfad07	-0.40561697
24	0xbec64721	-0.38726142
25	0xbf45d066	-0.77271116
26	0x3dad79b9	0.084704824
27	0xbf8294b7	-1.0201634
28	0xbfb33e5e	-1.4003408
29	0x3db43dfa	0.088008836
30	0xbf5450b5	-0.8293565
31	0xbea9c836	-0.3316056

bn3.running_var f4 [32]
0	0x3ec66615	0.38749757
1	0x3e85bfbf	0.26122853
2	0x3e67a4ca	0.22621456
3	0x3ec02689	0.375294
4	0x3e5b4432	0.21412733
5	0x3e7d7f06	0.24755487
6	0x3e52037c	0.20509142
7	0x3eb533da	0.35391122
8	0x3e797685	0.24361618
9	0x3e5212b5	0.20514949
10	0x3eb2cd06	0.34922045
11	0x3ebb4054	0.36572516
12	0x3e81396a	0.25239116
13	0x3ee9c461	0.45657638
14	0x3ebc1d8c	0.36741292
15	0x3e57ca2d	0.21073218
16	0x3e6262b8	0.2210797
17	0x3e8c34f7	0.2738416
18	0x3ea84c5c	0.32870758
19	0x3eb29dc8	0.34886003
20	0x3f1847ae	0.59484375
21	0x3e905925	0.28193012
22	0x3ee892dc	0.45424545
23	0x3e7e56b7	0.24837767
24	0x3e4fb3ee	0.20283481
25	0x3ec97a0e	0.39350933
26	0x3e5423fc	0.20716852
27	0x3eddc0a0	0.43311024
28	0x3f524261	0.82132536
29	0x3f3c7824	0.7362082
30	0x3e8efee0	0.2792883
31	0x3e854e54	0.26036322

shared_layers.0.weight f4 [128, 128]
0	0x3c6cc481	0.014451147
1	0xbdbff6a7	-0.09373217
2	0x3e032811	0.12808253
3	0x3dc33a90	0.09532654
4	0xbdafef73	-0.08590593
5	0xbc4d022f	-0.012512728
6	0xbd370ebc	-0.044691786
7	0xbd9cde99	-0.07659645
8	0x3da087ac	0.07838377
9	0xbe1464e5	-0.14491613
10	0x3e10002b	0.14062564
11	0xbdb31e30	-0.08745992
12	0x3c155cc6	0.009116357
13	0x3daade83	0.08343222
14	0xbcb3788e	-0.02190807
15	0xbbf95f27	-0.00761022
16	0x3d88f040	0.06686449
17	0x3d97dd3c	0.07415244
18	0xbd66b874	-0.056328252
19	0x3cb9b91f	0.02267128
20	0xbdf90cc2	-0.121606365
21	0x3cfebe6f	0.031096665
22	0x3d8eb078	0.069672525
23	0x3cfe6aee	0.031056847
24	0x3e2aac11	0.166672
25	0x3dcd6529	0.100290604
26	0xbd058e08	-0.032606155
27	0x3d8869b3	0.066607855
28	0x3db52bc8	0.08846241
29	0xbdc4ad85	-0.09603409
30	0x3dc177c4	0.094466716
31	0x3e05009b	0.12988512
32	0x3d0aa19e	0.033845536
33	0xbdb406ab	-0.08790334
34	0x3c39cfea	0.0113410745
35	0xbd88a171	-0.066714175
36	0x3e0b498c	0.13602275
37	0x3dc65c25	0.09685544
38	0x3d8e8638	0.06959194
39	0x3daf29ad	0.08552871
40	0xbe16e4e0	-0.14735746
41	0xbe1de920	-0.15420961
42	0xbd69b8f9	-0.05706117
43	0xbc17dd9f	-0.009269147
44	0x3db60332	0.08887328
45	0x3d62f258	0.0554069
46	0xbdcf1cc7	-0.10112911
47	0x3a480ab3	0.0007630989
48	0x3c3ad1fc	0.011402603
49	0xbdc7724e	-0.09738599
50	0xbdcceaa5	-0.100056924
51	0x3deab405	0.11460117
52	0xbe1021c5	-0.14075382
53	0x3d5a5cec	0.053311273
54	0xbe068404	-0.13136297
55	0xbd7df379	-0.06199977
56	0xbd1ce635	-0.03830548
57	0xbe194c32	-0.14970472
58	0x3d9564c2	0.07294609
59	0xbdc80c37	-0.09767955
60	0xbe153eee	-0.14574787
61	0xbd09b046	-0.033615373
62	0x3c325db0	0.010886595
63	0xbdb73a1d	-0.08946631
64	0x3dbe84a9	0.09302647
65	0xbe2ae7d7	-0.16690002
66	0xbd956e4e	-0.072964296
67	0xbdc40ed6	-0.09573142
68	0xbdebd302	-0.11514856
69	0x3d95e4fa	0.073190644
70	0x3b2b8cd8	0.0026176479
71	0xbdfbe95d	-0.1230037
72	0x3da5aee3	0.080899976
73	0x3cbb9cd5	0.022901932
74	0x3ad560f3	0.0016279503
75	0x3c8a9042	0.01691449
76	0xbddfd03b	-0.10928389
77	0xb9e4b817	-0.00043624706
78	0x3d6ba7c4	0.05753304
79	0xbd526d81	-0.051373962
80	0xb9598cbd	-0.00020747162
81	0x3d1ab928	0.037774235
82	0x3d6ec161	0.05828989
83	0x3d69e300	0.05710125
84	0x3df7dabe	0.12102269
85	0xbe175866	-0.14779815
86	0x3ca91770	0.020641059
87	0xbcb15650	-0.021647602
88	0x3d3acd9b	0.045606237
89	0xbc14c97a	-0.009081239
90	0x3d1c71df	0.038194533
91	0xbdd7b07e	-0.1053171
92	0x3df65ecc	0.120298
93	0xbe12171a	-0.14266625
94	0x3dd5b1a4	0.10434273
95	0x3deb69a3	0.11494758
96	0x3d91d252	0.071201935
97	0xbd955714	-0.072919995
98	0x3e007849	0.12545885
99	0xbda2fa96	-0.07957952
100	0x3dd295da	0.10282488
101	0xbdf0cf15	-0.11758248
102	0xbca6e6a4	-0.02037365
103	0x3e106fcc	0.14105147
104	0xbe16284b	-0.14663808
105	0x3d957644	0.07297948
106	0x3b45b038	0.003016485
107	0x3de512b1	0.11185206
108	0x3cd0a522	0.025469366
109	0xbc262c3a	-0.01014238
110	0x3dea965d	0.11454461
111	0x3d8095e9	0.06278593
112	0x3e0ddbe8	0.13853419
113	0x3e02e94c	0.12784308
114	0xbe0091a7	-0.12555562
115	0x3de08c25	0.109642304
116	0x3d407cc3	0.046993982
117	0xbd3427dd	-0.04398333
118	0x3e0c76f5	0.13717254
119	0xbdcd09c3	-0.100116275
120	0x3e03aa83	0.12858014
121	0x3dd5a190	0.10431206
122	0xbdea60e4	-0.11444262
123	0x3d9b7bf8	0.075920045
124	0xbd002f3d	-0.03129505
125	0xbd6acefe	-0.05732631
126	0xbe0e3b72	-0.13889864
127	0xbdc5da1a	-0.0966074
128	0xbd3048c5	-0.04303815
129	0x3e104189	0.140875
130	0x3d25c2f4	0.040469125
131	0x3dd0906d	0.10183797
132	0x3cfcbf9a	0.030853081
133	0xbd15c73f	-0.03656697
134	0x3db1fe9c	0.08691141
135	0xbd2c99e9	-0.042138968
136	0x3e26c2cd	0.16285248
137	0xbd0b9c9d	-0.034084905
138	0xbcffc444	-0.031221516
139	0x3d915b7f	0.070975296
140	0x3dc75ab1	0.09734095
141	0x3dd19950	0.1023432
142	0xbe0e5c6e	-0.13902447
143	0xbe15353c	-0.14571089
144	0x3e02889d	0.12747426
145	0xbdbd9b39	-0.09258122
146	0x3d16e8dc	0.036843166
147	0xbc49d88e	-0.012319697
148	0xbc90192e	-0.017590132
149	0x3d4fe3ce	0.05075436
150	0x3d6787e2	0.056526072
151	0x3cb02f81	0.021507027
152	0x3d4dd9cb	0.05025653
153	0xbda796d5	-0.08183066
154	0xbc41c054	-0.01182564
155	0xbde27f2c	-0.11059412
156	0xbcddfb02	-0.027097229
157	0x3dc65875	0.096848406
158	0xbc83f11d	-0.016106183
159	0xbd5783be	-0.052615874
160	0x3bf566bd	0.007489054
161	0x3d634906	0.055489562
162	0xbc3889d7	-0.011263332
163	0xbe1ba374	-0.15199071
164	0x3ddbc128	0.10730201
165	0xbd8d286a	-0.06892474
166	0xbd1e3cdd	-0.038632262
167	0x3dafdab5	0.08586637
168	0x3d9cb81c	0.076523036
169	0xbe1087a9	-0.1411425
170	0x3d15e6e3	0.036597144
171	0x3d6cdf55	0.057830174
172	0x3dcff797	0.10154646
173	0x3e069624	0.13143212
174	0xbc74a6c5	-0.014932339
175	0x3e225e77	0.15856348
176	0x3d1342df	0.035952445
177	0x3d94efbf	0.072722904
178	0xbd02f35a	-0.03197036
179	0x3c533d7a	0.012893075
180	0xbda29264	-0.07938078
181	0x3d10ac88	0.03532079
182	0xbe099fe9	-0.13439907
183	0xbc9747f4	-0.018466927
184	0x3db98e2f	0.090603225
185	0xbe0ec0ab	-0.13940684
186	0xbc730b80	-0.014834285
187	0x3d3a6c01	0.045513157
188	0x3d530730	0.051520526
189	0xbd8f87ea	-0.070083454
190	0x3dd66217	0.10467928
191	0x3cd57d3d	0.026060695
192	0x3d61b571	0.055104677
193	0x3a458561	0.00075348286
194	0xbd98a0c7	-0.07452541
195	0x3d2db50c	0.042408988
196	0xbe0662e2	-0.13123658
197	0x3e1d95dd	0.153892
198	0x3e18e398	0.1493057
199	0xbd24552c	-0.04012029
200	0xbd5760ce	-0.052582555
201	0x3e10b065	0.14129789
202	0x3d3aa1a2	0.0455643
203	0xbd732768	-0.059363753
204	0x3b4c2a3b	0.00311531
205	0xbd53c04b	-0.051697057
206	0x3d600e7e	0.05470132
207	0xbc8cdacd	-0.017194176
208	0xbc992ed1	-0.018699082
209	0x3dae7882	0.08519079
210	0xbcb8d71b	-0.022563508
211	0x3df23c09	0.11827857
212	0xbdd95f03	-0.10613825
213	0x3d0223c4	0.03177239
214	0xbe0d18df	-0.13779019
215	0x3e18b29d	0.14911886
216	0x3dfa4569	0.1222027
217	0xbe0a608f	-0.13513397
218	0xbd0a74f3	-0.033802938
219	0xbe158a3b	-0.14603512
220	0xbde6ef61	-0.11276127
221	0x3d67a078	0.05654952
222	0xbd63ab9e	-0.05558359
223	0x3de2a0fa	0.1106586
224	0xbd9d98bd	-0.07695148
225	0x3e0164db	0.1263613
226	0xbd9a6d09	-0.07540328
227	0x3e0bf215	0.13666566
228	0xbda262c6	-0.07928996
229	0x3d71d35a	0.05903945
230	0xbd8ed14a	-0.069735125
231	0x3de041f0	0.109500766
232	0x3df4f1fc	0.11960217
233	0x3e04d306	0.12971124
234	0x3c8aa09b	0.016922286
235	0xbd9b5801	-0.07585145
236	0x3d565827	0.052330162
237	0x3e075373	0.13215427
238	0xbdf5b6ef	-0.119977824
239	0xbd665be9	-0.056239996
240	0x3c66b2b0	0.014080688
241	0xbe07fad4	-0.13279277
242	0xbde047e8	-0.10951215
243	0x3b4831e3	0.0030547313
244	0xbdaa9042	-0.08328296
245	0xbdfe4269	-0.124150105
246	0xbd9cec3c	-0.07662246
247	0xbe365c5b	-0.17808668
248	0x3e070f6b	0.13189475
249	0x3dbd5daa	0.092463806
250	0x3dd0d528	0.10196906
251	0x3e0c09d8	0.1367563
252	0x3d8fcd6d	0.07021604
253	0xbbd76ec5	-0.006574484
254	0x3dc71bcb	0.09722098
255	0x3dbd604e	0.09246884

shared_layers.0.bias f4 [128]
0	0x3d5b9923	0.05361284
1	0x3cc885f9	0.024477946
2	0xbd22c90a	-0.039742507
3	0x3d5cb816	0.053886496
4	0xbdbab1e4	-0.09115961
5	0x3dabfe33	0.08398094
6	0xbd544a49	-0.051828656
7	0xbd37f2ad	-0.044909168
8	0xbdb71dc0	-0.08941221
9	0x3d3f6068	0.0467228
10	0x3dd1266c	0.102124065
11	0x3d19cb5c	0.037547454
12	0x3c49b1ad	0.012310428
13	0x3c9ef0c2	0.019401912
14	0x3d4321b9	0.047639582
15	0x3d435824	0.04769148
16	0xbd183f09	-0.03716949
17	0x3ca669c3	0.020314103
18	0xbcb45667	-0.022013856
19	0x3d8fceb3	0.070218466
20	0xbbc5f492	-0.006041118
21	0xbd39d6b5	-0.045370776
22	0xbd39f3f1	-0.045398656
23	0x3d56ead9	0.052470062
24	0x3ce144a0	0.027498543
25	0xbc79998a	-0.0152343605
26	0xbc6a9cfc	-0.014319655
27	0xbcf45dd3	-0.029829895
28	0xbd116d79	-0.035504792
29	0x3d1c3131	0.03813285
30	0x3d5b2d3b	0.053509932
31	0xbd636e1c	-0.05552493
32	0x3cc356bf	0.023845075
33	0xbd03967a	-0.032125928
34	0x3d11dcd1	0.035610978
35	0x3ca0bc9a	0.019621182
36	0x3d5655b8	0.05232784
37	0xbba4eda8	-0.0050332136
38	0x3db843bc	0.08997294
39	0xbd24eb2d	-0.040263344
40	0x3d50a5e8	0.05093947
41	0xbd8593b2	-0.06522311
42	0x3d6bb02a	0.05754105
43	0x3d2ebb8c	0.042659327
44	0xbc905be1	-0.017621936
45	0x3da8c167	0.082400136
46	0xbc97c8bc	-0.018528335
47	0x3d98fbfb	0.074699365
48	0x3d02d54d	0.0319417
49	0x3d234317	0.039858904
50	0x3d856177	0.065127306
51	0xbd507eb3	-0.05090208
52	0xbc23b5a9	-0.009992042
53	0xbceab1db	-0.028649261
54	0xbd6b7d7e	-0.057492726
55	0x3d6f6604	0.0584469
56	0x3cfefd93	0.031126773
57	0xbd43a7ce	-0.047767453
58	0x3d205c43	0.039150488
59	0x3d95f93a	0.07322927
60	0x3c168e34	0.009189177
61	0xbb6bd18c	-0.0035983054
62	0x3c5378fb	0.012907262
63	0x3c70aafc	0.014689203
64	0xbc0a4765	-0.008439873
65	0x3d0a4021	0.033752564
66	0x3d8335e7	0.064067654
67	0x3de5427b	0.11194321
68	0xbd570bf7	-0.052501645
69	0xba4fd5af	-0.00079282647
70	0x3dbc7c50	0.09203398
71	0x3d82dbe5	0.06389598
72	0xbd48c222	-0.049013264
73	0x3c463a00	0.012098789
74	0x3cf79b8b	0.030225536
75	0xbc53e5f7	-0.012933246
76	0xbd9abe57	-0.07555836
77	0x3d08332b	0.033251923
78	0xbd28de62	-0.041227706
79	0xbd9bf1cf	-0.07614481
80	0x3c3b89e2	0.011446448
81	0xbc3e5cc2	-0.011618795
82	0xbc314b1c	-0.01082113
83	0x3d102aec	0.035197183
84	0xbd34d175	-0.044145066
85	0xbd1a4fa5	-0.03767361
86	0xbba19fc9	-0.004932378
87	0x3dc8330b	0.09775361
88	0x3d6c3fe7	0.05767813
89	0x3d336780	0.043799877
90	0xbc663f32	-0.014053153
91	0x3bcc2406	0.0062298803
92	0xbc25694e	-0.010095907
93	0x3d151a59	0.03640208
94	0x3c659237	0.014011911
95	0xbd919e00	-0.07110214
96	0x3ce6f063	0.028190797
97	0xbb964624	-0.004585998
98	0x3d6f2aa4	0.058390275
99	0x3dd2c588	0.10291582
100	0x3dc921c8	0.098208964
101	0x3d4ce1aa	0.050019898
102	0x3d2d08b9	0.042244647
103	0xbd645dd5	-0.055753548
104	0x3ddd3253	0.10800614
105	0x3d55e14c	0.052216813
106	0x3d71d038	0.059036463
107	0x3d8081fc	0.062747926
108	0x3d8b0547	0.06788116
109	0xbd85a0f0	-0.06524837
110	0xbd783764	-0.0605997
111	0x38d3cc57	0.00010099325
112	0xbd8b5f36	-0.068052694
113	0x3bf58011	0.0074920733
114	0xbd82a6ea	-0.063794926
115	0xbcf8af24	-0.030356951
116	0xbdabaca5	-0.08382539
117	0xbcd459c6	-0.025921714
118	0x3db3ab20	0.08772874
119	0xbc88ef1d	-0.01671558
120	0x3d2e3eba	0.04254029
121	0x3c8fd432	0.017557237
122	0xbcdc8f04	-0.026923664
123	0xbd5d299e	-0.053994767
124	0xbd58ff03	-0.052977573
125	0xbd8c641b	-0.06855031
126	0x3d6c7a4b	0.057733815
127	0xbb93f0a5	-0.004514771

shared_layers.1.weight f4 [64, 128]
0	0xbe433ce9	-0.19066204
1	0xbd9fa9e4	-0.07796076
2	0xbe1eb0aa	-0.1549708
3	0x3db3d8f7	0.08781617
4	0x3da091e9	0.0784033
5	0xbd934495	-0.07190815
6	0xbd6f8799	-0.058478925
7	0x3e2216b1	0.15828969
8	0x3c51f7c2	0.012815418
9	0xbd7251e9	-0.059160147
10	0xbe265194	-0.16242057
11	0xbda50390	-0.0805732
12	0x3d96d290	0.0736438
13	0xbe2f9a91	-0.17148806
14	0xbdf1870e	-0.11793338
15	0xbe197478	-0.14985836
16	0x3e05f005	0.13079841
17	0x399b685d	0.0002964166
18	0x3dbaa06f	0.091126315
19	0xbd80df29	-0.062925644
20	0xbe10e6a9	-0.1415049
21	0x3e228e3f	0.15874575
22	0x3de3713c	0.11105582
23	0xbc8123d5	-0.015764156
24	0x3c03cae8	0.008043982
25	0xbe0860c8	-0.13318169
26	0x3c641058	0.013919912
27	0x3e3caf5d	0.18426271
28	0xbdbae0a8	-0.09124881
29	0xbc8b01ef	-0.016968695
30	0x3dac73a2	0.08420493
31	0x3b434b8d	0.002979967
32	0x3da2cfab	0.07949766
33	0xbe3555de	-0.17708537
34	0x3d282de4	0.04105939
35	0xbcad5996	-0.021160882
36	0xbd595b9e	-0.05306589
37	0xbd2928d2	-0.041298695
38	0xbe2fb0a3	-0.17157225
39	0xbbe2c965	-0.0069209808
40	0x3e017dc1	0.12645628
41	0x3d450e9d	0.04810964
42	0xbe2d697b	-0.16934769
43	0x3e03db29	0.12876572
44	0xbe044790	-0.12917924
45	0xbdd57ed2	-0.1042458
46	0xbc9552c1	-0.018227937
47	0x3e030f3f	0.12798785
48	0xbdf07cd0	-0.11742556
49	0x3d4b7668	0.049673468
50	0xbdd25575	-0.10270206
51	0x3da3aa77	0.07991498
52	0xbe208e3e	-0.15679261
53	0xbe124afc	-0.14286417
54	0x3e1e9ebb	0.15490238
55	0xbcbb1d24	-0.022841044
56	0xbd826d39	-0.06368489
57	0x3db168c2	0.08662559
58	0x3e30cb0f	0.1726496
59	0x3e1825d4	0.1485818
60	0x3da8e346	0.08246474
61	0xbe239cb9	-0.15977754
62	0x3ddadfe8	0.10687238
63	0x3dccd664	0.10001829
64	0xbbfae0e3	-0.007656203
65	0xbda83e72	-0.082150355
66	0x3dba6f3f	0.0910325
67	0xbcf65015	-0.030067483
68	0xbe0fc6bd	-0.14040656
69	0xbdabbd2e	-0.083856925
70	0xbd33646a	-0.043796934
71	0x3c51acf8	0.012797587
72	0x3ddee2cc	0.10883102
73	0x3d9126a6	0.0708745
74	0xbda7de70	-0.081967235
75	0x3e16dae7	0.14731942
76	0xbdf0ae84	-0.11752036
77	0xbd864c39	-0.06557507
78	0x3dbe4a16	0.092914745
79	0x3e28d7db	0.16488592
80	0x3da67bb1	0.08129061
81	0xbdfd7a6f	-0.12376868
82	0xbe22b62c	-0.15889806
83	0xbbd7087b	-0.0065622902
84	0x3b49062f	0.0030673852
85	0xbe10f519	-0.14155997
86	0x3dff8f7f	0.124785416
87	0xbe00bb05	-0.12571342
88	0x3cde66ea	0.027148683
89	0xbdfe3e3c	-0.12414214
90	0x3dd5e097	0.10443228
91	0x3d1cc0e6	0.0382699
92	0x3e14c948	0.14529908
93	0x3ce2823e	0.027649995
94	0xbd4f60bc	-0.050629362
95	0xbdc3c928	-0.09559852
96	0xbbb4b3c2	-0.005514593
97	0xbd5222a1	-0.051302556
98	0x3e200fe3	0.1563106
99	0xbe0f36a9	-0.13985695
100	0xbc3eb4cb	-0.011639784
101	0xbd728de3	-0.059217345
102	0x3c2ca9b9	0.010538512
103	0x3e01355c	0.12618011
104	0x3e2bff24	0.16796547
105	0xbd59a28c	-0.053133532
106	0xbd9b49ad	-0.07582412
107	0xbe3b0cdc	-0.18266624
108	0xbd737236	-0.059435092
109	0x3e1d8d17	0.15385853
110	0xbe0392a5	-0.12848909
111	0xbe12b212	-0.14325741
112	0x3d4a0c6f	0.049328264
113	0xbe278cba	-0.16362277
114	0x3c2aa6fa	0.010415787
115	0xbd925cf3	-0.07146635
116	0xbcbd5d07	-0.023115648
117	0xbe4168cf	-0.18887638
118	0x3e2a2ce0	0.16618681
119	0xbe1192cc	-0.14216155
120	0xbd4cc00f	-0.04998785
121	0xbd190d3f	-0.037366148
122	0x3bb91822	0.005648629
123	0x3d3ebce0	0.046566844
124	0x3d274624	0.040838376
125	0xbddb2716	-0.107008144
126	0xbde39d0f	-0.11113941
127	0xba6230a2	-0.00086284627
128	0xbdce950e	-0.10087024
129	0xbc4c87b9	-0.012483531
130	0xbc4eff6c	-0.0126341395
131	0xbdc1495c	-0.0943782
132	0x3daddd1f	0.08489441
133	0x3e033515	0.12813218
134	0x3d83b0f9	0.06430239
135	0xbd74e55a	-0.05978904
136	0xbd4bf904	-0.049798027
137	0x3e2e9d02	0.17052081
138	0xbd7e9699	-0.06215534
139	0x392a5cdf	0.0001624706
140	0x3d8d7f26	0.06909017
141	0xbd3a2207	-0.045442607
142	0xbd737803	-0.059440624
143	0xbd76d4d0	-0.060261548
144	0xbd462677	-0.048376527
145	0x3e181787	0.14852725
146	0x3dd87332	0.10568847
147	0xbd45bcab	-0.04827563
148	0xbe125d32	-0.14293364
149	0x3e43681a	0.1908268
150	0xbdc3f658	-0.09568471
151	0xbe03d920	-0.12875795
152	0xbdd98df4	-0.106227785
153	0xbdffc60d	-0.12488947
154	0x3e2e1eea	0.1700398
155	0xbce96c11	-0.028493913
156	0x3e3e6c62	0.18596032
157	0x3dc3d341	0.09561778
158	0xbce58f18	-0.028022334
159	0xbe3786e7	-0.17922555
160	0x3ddc7b5a	0.10765715
161	0x3df558f4	0.11979857
162	0x3da26bad	0.07930694
163	0x3e01d9b5	0.12680705
164	0xbe0608a0	-0.13089228
165	0xbded3729	-0.115827866
166	0x3d9728d9	0.07380838
167	0xbe1fdb7f	-0.15611075
168	0xbdca75ba	-0.09885736
169	0x3e177d89	0.14793982
170	0xbe1832b7	-0.14863096
171	0x3e3e0ad5	0.1855882
172	0x3d38adf8	0.045087785
173	0xbde6ced9	-0.11269922
174	0x3e22bc81	0.15892221
175	0x378e96f0	1.6998005e-05
176	0xbde26c34	-0.11055794
177	0x3d473215	0.048631746
178	0xbd0e85a6	-0.034795426
179	0xbe33e88c	-0.17569178
180	0xbe4b2567	-0.19838487
181	0xbcf1f746	-0.029536854
182	0xbcf37f55	-0.029723803
183	0x3d517cfb	0.05114458
184	0x3e0ea369	0.13929524
185	0x3e06a04a	0.13147083
186	0xbe1a5fc3	-0.15075593
187	0xbdc5a2df	-0.09650206
188	0x3e46aa41	0.19400884
189	0xbc43af94	-0.011943717
190	0xbd34d158	-0.04414496
191	0xbdc96353	-0.09833398
192	0xbe13299f	-0.14371346
193	0xbd6f9fe9	-0.05850211
194	0x3e3563d2	0.1771386
195	0xbe0c1bff	-0.13682555
196	0xbe25c7a8	-0.16189444
197	0x3d2ca3e1	0.042148475
198	0xbd8577b7	-0.065169744
199	0x3d4b85fa	0.049688317
200	0x3dddecf2	0.10836209
201	0xbdb78011	-0.089599736
202	0xbd697e77	-0.057005372
203	0x3e00b3d6	0.12568602
204	0xbceee2e0	-0.029160917
205	0xbe305ab2	-0.17222098
206	0x3c81d272	0.015847418
207	0xbb614516	-0.0034373454
208	0xbe35b45c	-0.17744583
209	0xba4c9960	-0.0007804837
210	0x3e17ece1	0.14836456
211	0xbe06ed2b	-0.1317641
212	0x3e182152	0.1485646
213	0x3dc2029a	0.094731525
214	0xbdb5a1b8	-0.08868736
215	0x3e47f02f	0.19525217
216	0x3db66795	0.089064755
217	0x3cd1bf37	0.025603874
218	0x3e2b9162	0.16754678
219	0xbdbecabf	-0.093160145
220	0xbdbad40b	-0.09122475
221	0xbd6ae0cd	-0.057343293
222	0xbd832022	-0.06402613
223	0xbdc8736e	-0.097876415
224	0xbe18ba6d	-0.14914866
225	0x3cf3452f	0.029696075
226	0xbd88dc22	-0.06682612
227	0xbdc8e6f0	-0.09809673
228	0xbd65ee25	-0.056135315
229	0x3b0a7593	0.0021127209
230	0xbe0aaf16	-0.13543352
231	0xbe1531e7	-0.14569817
232	0x3cf98408	0.030458465
233	0x3ce64a57	0.02811162
234	0xbba4a8ed	-0.0050250203
235	0xbdf7a3cf	-0.12091791
236	0x3e0ec2d0	0.13941503
237	0xbd73e9cf	-0.05954915
238	0xbc3991e8	-0.011326291
239	0x3da93000	0.082611084
240	0x3d726544	0.059178606
241	0x3e4bf88b	0.1991903
242	0xbe3ad2af	-0.18244432
243	0xbd2096a9	-0.03920618
244	0x3ad40f77	0.0016178925
245	0xbe08f7e9	-0.1337582
246	0xbcd4e464	-0.025987811
247	0x3e3ed057	0.18634163
248	0xbb8a9acf	-0.0042298804
249	0x3d5c20a7	0.053742077
250	0xbcd00baa	-0.025396187
251	0xbd90c749	-0.070692606
252	0x3e4b60d8	0.19861162
253	0xbe41531e	-0.18879363
254	0x3ddeae38	0.10873073
255	0xbe142967	-0.14468919

shared_layers.1.bias f4 [64]
0	0x3cfcc78f	0.030856876
1	0xbd0b21f6	-0.033967935
2	0xbdacf6cc	-0.0844551
3	0xbd7f5c74	-0.06234403
4	0xbbfc4dae	-0.00769969
5	0x3b958c91	0.004563876
6	0xbd9d57c1	-0.07682753
7	0x3d47f477	0.048817124
8	0x3d0ab523	0.03386415
9	0x3d3a0ba4	0.045421258
10	0x3d1ecf39	0.03877184
11	0xbd016678	-0.031591862
12	0x3d93db72	0.0721959
13	0x3daa301e	0.08309959
14	0x3c868a61	0.016423406
15	0xbd0772f3	-0.03306861
16	0xbcbbcfce	-0.022926237
17	0x3c925db4	0.017866947
18	0xbc6272ba	-0.013821298
19	0x3ddf3df9	0.10900492
20	0x3c57addf	0.013164013
21	0x3db5a11b	0.08868619
22	0xbb02d980	-0.0019966066
23	0xba1f6706	-0.00060807203
24	0xbc86425e	-0.016389068
25	0xbd2f5d76	-0.04281374
26	0x3d59b006	0.053146385
27	0x3b252b4e	0.0025202814
28	0xbd70cb93	-0.058787894
29	0x3cca816e	0.02471992
30	0x3cd59c46	0.026075494
31	0x3dddf6b9	0.10838074
32	0x3d0d3f56	0.03448423
33	0xbd67f921	-0.056634072
34	0xbdba0a7c	-0.09084031
35	0x3cadf6a2	0.021235768
36	0x3d3bdd6e	0.04586547
37	0x3c77f14e	0.015133215
38	0x3b8288bf	0.0039835866
39	0xbd3102af	-0.04321545
40	0x3da850c6	0.08218531
41	0xbc2f3763	-0.010694358
42	0x3d774fff	0.060379025
43	0xbd74f8ec	-0.059807703
44	0x3ccb41f6	0.024811726
45	0x3d40f0af	0.047104534
46	0x3da69ab0	0.08134973
47	0xbc0caa2f	-0.008585497
48	0x3d9692df	0.07352232
49	0x3de961e4	0.11395624
50	0x3de75a27	0.11296492
51	0xbd05d50c	-0.03267388
52	0x3d804bba	0.06264444
53	0xbdbc3fa8	-0.09191829
54	0x3c4dddd4	0.012565095
55	0xbd9c2157	-0.076235466
56	0xbd46fcda	-0.04858098
57	0x3dc2d248	0.09512764
58	0x3db31966	0.08745079
59	0xbd497814	-0.04918678
60	0x3d93b08f	0.0721141
61	0x3d6a13d6	0.057147823
62	0xbd19d740	-0.037558794
63	0xbc31be70	-0.0108486265
